models/pretrained_weights/wdsr_b_x2_8_24.pt (torch, 395762 bytes, 81 tensors)

head.bias f4 [24]
0	0xbe0c8247	-0.13721572
1	0xbce28967	-0.02765341
2	0x3f6ec514	0.9326947
3	0x3e138dd7	0.14409576
4	0xbd5ceffe	-0.053939812
5	0xbdb5f645	-0.08884863
6	0xbcee2a33	-0.029072857
7	0xbe0a747b	-0.13520996
8	0xbdd2b8a3	-0.10289123
9	0xbcd9a9ac	-0.026570164
10	0xbbbcf11a	-0.0057660462
11	0x3d27ab30	0.04093474
12	0x3d38c4c2	0.045109518
13	0x3c9f6af6	0.019460183
14	0xbaff574f	-0.0019480976
15	0x3dc3ac89	0.09554393
16	0xbcd26755	-0.025684038
17	0xbd209c5b	-0.039211612
18	0xbea005b6	-0.31254357
19	0xbbc407c0	-0.005982369
20	0x3e5fa6b8	0.21840942
21	0x3d2af687	0.041739013
22	0x3f225fd8	0.63427496
23	0x3c0250b8	0.007953815

head.weight_g f4 [24, 1, 1, 1]
0	0x4054cc15	3.3249562
1	0x408cd0bb	4.40048
2	0xbaddf87d	-0.0016935017
3	0x4137ad4a	11.479807
4	0x3fa49f29	1.2861072
5	0x40a77875	5.233454
6	0x4111832e	9.094526
7	0x4091068d	4.5320497
8	0x3fc84178	1.564498
9	0x3fedb1e1	1.8569909
10	0x401a73bf	2.4133146
11	0x405f3f33	3.4882324
12	0x4038d6b4	2.8881044
13	0x4014ef6a	2.3271127
14	0x3f8ac3d9	1.0841018
15	0x3fdd772b	1.7301992
16	0x3fc5fa7a	1.5467064
17	0x4018b5ee	2.386104
18	0x40a32302	5.0980234
19	0x3fc93baf	1.5721339
20	0x40bbed9d	5.8727555
21	0x400a0345	2.1564496
22	0x3fcd4396	1.603625
23	0x3ef26517	0.4734275

head.weight_v f4 [24, 3, 3, 3]
0	0x3eafc906	0.34333056
1	0x3efd4ad7	0.4947116
2	0xbfbc17dd	-1.4694782
3	0x4002d999	2.044531
4	0x40498bc1	3.149155
5	0xbf2da954	-0.678365
6	0xbfb79b5f	-1.434429
7	0x3d399e98	0.045317262
8	0xc00d9877	-2.2124307
9	0xbe34f2b4	-0.17670709
10	0xbf8bc20b	-1.0918592
11	0xbe00efaf	-0.12591432
12	0x3e7087c0	0.23489285
13	0xc03061e4	-2.7559748
14	0x3ec3b72b	0.38225684
15	0x3e0430f6	0.12909302
16	0x3eeca812	0.46221977
17	0x3f01c9af	0.5069837
18	0x3db937fa	0.0904388
19	0xc003de68	-2.0604496
20	0x3f8029b2	1.0012724
21	0xbf8fbeec	-1.123014
22	0xc07700ed	-3.8594315
23	0x3edd41a2	0.43214136
24	0x3f359f00	0.7094574
25	0x3f510d47	0.81660885
26	0x3fde27e4	1.7355924
27	0x3db61106	0.08889966
28	0x400c881f	2.1958082
29	0xc004bb79	-2.0739424
30	0x3fe0ccc4	1.756249
31	0xc0993261	-4.7874
32	0x3e90ca87	0.28279516
33	0x3f8708d2	1.0549567
34	0x406657c8	3.5991077
35	0xbee8de64	-0.4548217
36	0xbe24b2d2	-0.1608384
37	0xbf004ff1	-0.5012198
38	0x3e9e37f0	0.30902052
39	0xc0189f89	-2.3847373
40	0x40381f32	2.876904
41	0x3e783d4c	0.24242133
42	0xbf833141	-1.0249406
43	0xbfd19c83	-1.6375889
44	0x3e86c34d	0.26320878
45	0x3f0008f8	0.50013685
46	0xbee09fec	-0.4387201
47	0x3ecc6a14	0.3992468
48	0xbf3b5398	-0.7317443
49	0x3f3b59dd	0.73183995
50	0x3f161847	0.58630794
51	0x3e921f87	0.28539678
52	0xbfaa7ec4	-1.3319936
53	0x3db3f609	0.08787162
54	0x3f26a554	0.6509602
55	0xbf7e1386	-0.9924854
56	0xbeacc53a	-0.33744222
57	0x3d16d495	0.036823828
58	0x3fac5a6d	1.3465096
59	0xbec1434e	-0.37746662
60	0x3d5a8406	0.053348564
61	0xc00f7170	-2.2412987
62	0x3ff3a350	1.9034214
63	0xc03f7f3c	-2.9921408
64	0x40371494	2.860631
65	0x3f782fbe	0.9694785
66	0xbeb448f5	-0.35211912
67	0xbf3e4fdd	-0.7434061
68	0xbf07b3c3	-0.5300867
69	0x3ffadab8	1.9597998
70	0x3fa13e85	1.2597204
71	0xc017f820	-2.3745193
72	0x40212c0e	2.518314
73	0xbffba03b	-1.9658273
74	0xbf4e6256	-0.806188
75	0x3e9a499c	0.30134284
76	0xbf14f86d	-0.5819157
77	0x3f834ef3	1.0258468
78	0xc002892e	-2.0396228
79	0x3f6e9729	0.931994
80	0x3f1a40d0	0.60255146
81	0x3e4a2cf6	0.19743714
82	0x3f0b1ed2	0.54343903
83	0x3ec4a8de	0.38410085
84	0x3ed9486f	0.42438075
85	0xc004547c	-2.0676565
86	0x3f2fca53	0.686681
87	0xbe0976eb	-0.1342427
88	0xbe0b1353	-0.1358159
89	0x3d81cd5c	0.06337997
90	0xbdd28675	-0.10279552
91	0x3f089c19	0.53363186
92	0x39e27ef7	0.00043200675
93	0x3d9054c8	0.07047421
94	0xc02f33dc	-2.7375402
95	0x3dc09420	0.094032526
96	0xbd8657a4	-0.06559685
97	0x3d035fbf	0.032073732
98	0xbd17fc05	-0.03710558
99	0xbe15ce1e	-0.14629409
100	0xbf4e7fa2	-0.806635
101	0xbe479482	-0.19490245
102	0xbf66181a	-0.89880526
103	0x40d5f179	6.6857266
104	0xbfcb35e8	-1.5875826
105	0x3d8ace38	0.06777614
106	0xbf38e144	-0.7221873
107	0xbb9ef876	-0.004851396
108	0xc0237a18	-2.554327
109	0xbf47ed53	-0.78096503
110	0x3faeffe5	1.3671843
111	0x4026d78a	2.6069055
112	0xbffded52	-1.983805
113	0xbe5faebe	-0.21844003
114	0x40127c7c	2.288848
115	0x400ddbb9	2.2165358
116	0xbc2dd518	-0.010609888
117	0xc01bb28b	-2.4327724
118	0xbf9bfb5b	-1.2186083
119	0x3ff607ac	1.9221091
120	0x3f36a326	0.71342695
121	0x3fcc212d	1.5947624
122	0xc0121491	-2.2825053
123	0x3e840fb9	0.25793245
124	0xbe7da243	-0.24768929
125	0xbfd26780	-1.6437836
126	0xbe83a20f	-0.25709578
127	0x3e9ecd3a	0.3101595
128	0x3fbc9f31	1.4736081
129	0x3f42898d	0.75991136
130	0xbe5937e7	-0.21212731
131	0xc0312eed	-2.7684891
132	0x3f60ccff	0.878128
133	0xbf6fe129	-0.9370294
134	0xbfe136fc	-1.7594905
135	0xbeea998e	-0.45820278
136	0x3f80f096	1.0073421
137	0x3e416bec	0.18888825
138	0xbdb0506b	-0.086090885
139	0xc0aef4c9	-5.467381
140	0x40596313	3.396672
141	0xbf792a6c	-0.97330356
142	0xbf355f7e	-0.70848835
143	0x3d4c0c80	0.04981661
144	0xbd8566c4	-0.065137416
145	0x3eeccd42	0.4625035
146	0xbf788780	-0.97081757
147	0x3dc88268	0.09790498
148	0x405cd7f2	3.4506803
149	0x3f167966	0.5877899
150	0x3efe1eae	0.49632782
151	0xbf49867c	-0.7872083
152	0xbecdce3b	-0.40196404
153	0x3ed9a9fd	0.42512503
154	0xbe547a87	-0.20749865
155	0xbdaad144	-0.083406955
156	0xbf341562	-0.7034513
157	0xbc7b6b08	-0.015345342
158	0xbfce551e	-1.6119726
159	0x3f306eeb	0.6891925
160	0xbd13c623	-0.03607763
161	0x3ebbf4a8	0.36710095
162	0xbf345df6	-0.70455873
163	0xbf3a07c6	-0.7266811
164	0xbf4dba22	-0.8036214
165	0xbf2c4e1a	-0.67306674
166	0x4063bfe7	3.5585878
167	0xbdba017e	-0.09082316
168	0xbd6d2d43	-0.057904493
169	0x3d9ca96f	0.076495044
170	0xbea0a016	-0.31372136
171	0x3e275fb8	0.16345108
172	0x3f8e8868	1.1135378
173	0x3d968d11	0.07351125
174	0x3eb88849	0.36041477
175	0xc0c68141	-6.203278
176	0x400e3b47	2.222368
177	0x3ea98f06	0.3311693
178	0x3f9a420f	1.205141
179	0x3db00893	0.085953854
180	0x3ebf6c28	0.37387204
181	0x3e8bf5eb	0.27336058
182	0x3e31258b	0.17299478
183	0xbf142ed8	-0.5788398
184	0x3f0465f9	0.517181
185	0x3ddf9973	0.1091794
186	0xbcf7eb25	-0.030263493
187	0xbebf3411	-0.3734441
188	0xbe60eaf1	-0.21964623
189	0x3ef399ff	0.47578427
190	0x3f621702	0.8831636
191	0x3eb59b61	0.35470107
192	0x3fceb3d5	1.614863
193	0xc0918c54	-4.54838
194	0xbba5882b	-0.005051633
195	0xbd90f8ab	-0.0707868
196	0x3f3eee95	0.745828
197	0x3d8d758c	0.06907186
198	0x3d5bfe97	0.053709593
199	0xbedc4f69	-0.43029335
200	0xbe24a07e	-0.16076848
201	0x40106ad5	2.2565205
202	0xc0a99e40	-5.3005676
203	0x3d8261b6	0.06366293
204	0x3ec23941	0.37934306
205	0x4005c590	2.0901833
206	0x3f0956cf	0.53648084
207	0xbf3d4f0c	-0.7394874
208	0xbfa90161	-1.3203546
209	0xbf14f617	-0.58188003
210	0x3f848eea	1.0356114
211	0x3f1e7bf5	0.61907893
212	0xbe5d6666	-0.21621093
213	0xbc2628e1	-0.010141582
214	0x3fbc9ea9	1.4735919
215	0x3e7e46a0	0.24831629
216	0x3ea337c7	0.31878492
217	0xc007990c	-2.1187162
218	0x3fc4a9a6	1.5364273
219	0xbf954813	-1.166262
220	0x3f951f7a	1.1650231
221	0x3f9ab5d5	1.2086741
222	0x3f870f24	1.0551496
223	0x3fa745f4	1.3068223
224	0x402a1bfd	2.6579583
225	0x3f77f826	0.9686302
226	0xbf8eac26	-1.1146286
227	0xbf1d6382	-0.6147996
228	0x3e36e207	0.1785966
229	0x3f3a2d68	0.72725534
230	0xc0044c48	-2.0671558
231	0x3e591f1b	0.21203272
232	0x4003b411	2.0578654
233	0x3d8d9796	0.06913678
234	0x3f7212ec	0.9456012
235	0xbf91d966	-1.139447
236	0xc0113a07	-2.2691667
237	0xbdc2df29	-0.09515221
238	0x3e152fa4	0.14568955
239	0xc0b3a3b7	-5.6137347
240	0xbf0bc707	-0.54600567
241	0xbe0a9291	-0.13532473
242	0xbfc3555c	-1.5260425
243	0xbf83c6d1	-1.0295049
244	0x3fc30436	1.523566
245	0x3f4f38a4	0.809458
246	0x3fd62a95	1.6731745
247	0xc0608521	-3.5081255
248	0x405c5102	3.4424443
249	0xc005a271	-2.0880396
250	0x4045506e	3.083034
251	0xbe799b74	-0.24375707
252	0xbfa35fea	-1.2763646
253	0xbe9e75d8	-0.30949283
254	0xbee956fd	-0.4557418
255	0x3eebca7f	0.4605293

body.0.body.0.bias f4 [144]
0	0x3dbeb174	0.0931119
1	0xbf965f05	-1.1747748
2	0xbf83703e	-1.0268629
3	0xc0151260	-2.3292465
4	0xc0280de0	-2.6258469
5	0xbe3e8e0c	-0.18608874
6	0xbf465c5d	-0.77484685
7	0xc0325163	-2.7862175
8	0xbe46f6b5	-0.19430049
9	0xbf6873de	-0.908018
10	0xbf26db71	-0.6517859
11	0x3ea411e1	0.3204489
12	0xc08e599c	-4.4484386
13	0xc0043abb	-2.0660846
14	0xbee9d569	-0.45670632
15	0xbfd4420a	-1.6582654
16	0xbf0d0597	-0.55086654
17	0xbedaf52b	-0.42765173
18	0xbf3afa38	-0.73038054
19	0xbfa8acbc	-1.3177714
20	0x3e6c844c	0.23097342
21	0xbeceb699	-0.40373686
22	0xbd1d939b	-0.038470846
23	0xbd1f1992	-0.038842745
24	0x3d8be461	0.06830669
25	0xbdc80aef	-0.097677104
26	0xbeac0668	-0.33598638
27	0xbf82780b	-1.0192884
28	0xbf518fd3	-0.81860083
29	0x3e12ac94	0.14323646
30	0xbf84e754	-1.0383096
31	0xbe8fa16d	-0.28052846
32	0xc03f09cf	-2.9849737
33	0xbf07083b	-0.52746934
34	0xbde65a7c	-0.11247727
35	0xbee26e13	-0.44224605
36	0xbf985f86	-1.1904151
37	0xbf2a8ff9	-0.66625935
38	0x3e935e4d	0.28782883
39	0xc0051cee	-2.0798907
40	0xbf760575	-0.96102077
41	0xbfbe7930	-1.4880733
42	0xc03fa6bf	-2.9945524
43	0x3ec06f0f	0.3758473
44	0xc00d9d1c	-2.2127142
45	0xbf5c32ab	-0.86014813
46	0xbff3dc43	-1.9051594
47	0xc0b6f456	-5.717326
48	0x3e2793dc	0.16364998
49	0xbf63012a	-0.8867365
50	0x3e5652b9	0.20929994
51	0xc05d40a6	-3.4570708
52	0xc034b4dc	-2.8235388
53	0xbed0c3fe	-0.4077453
54	0xbdfca76c	-0.12336621
55	0xc00b37df	-2.175285
56	0xbeff0e3f	-0.49815556
57	0x3e8db6ed	0.27678624
58	0xbfb14af6	-1.3851001
59	0xbf073eb3	-0.52830046
60	0xc026fc9a	-2.6091676
61	0x3e76f8b4	0.2411831
62	0xbe928b69	-0.28621987
63	0xc0199818	-2.399908
64	0xbe0ec7b1	-0.13943364
65	0xbf176de3	-0.5915205
66	0xbffd4a32	-1.9788268
67	0xbfc40635	-1.5314394
68	0xbea97920	-0.33100224
69	0xc0113f50	-2.2694893
70	0x3dab5eb3	0.08367672
71	0x3e4ab19c	0.19794315
72	0xc029be6b	-2.6522472
73	0x3ed4749f	0.41495225
74	0xbf9f5376	-1.2447345
75	0xbd9a3c30	-0.07531011
76	0xc050eb3f	-3.2643583
77	0xbef9843c	-0.487337
78	0xbf90be2b	-1.1308035
79	0x3e07b4e7	0.13252603
80	0x3e367f05	0.17821892
81	0xbe3bdd25	-0.18346079
82	0xbff048ee	-1.8772256
83	0x3d7c5703	0.06160642
84	0xbf4f7bea	-0.8104845
85	0xbe34876c	-0.17629784
86	0xbff2b775	-1.8962237
87	0xc03e436f	-2.9728658
88	0xbfb392ca	-1.4029171
89	0xbe43c0e2	-0.19116548
90	0xbf04183d	-0.51599485
91	0xbf9de22b	-1.2334646
92	0xbf935a4e	-1.1511934
93	0xc007ce93	-2.1219833
94	0xbed0e504	-0.40799725
95	0xbe7f89ee	-0.2495496
96	0xbd98e60e	-0.074657544
97	0xbcb96bdf	-0.022634445
98	0xbe558823	-0.20852713
99	0xc0a3c825	-5.1181817
100	0xbfbf2153	-1.4932045
101	0xc00429e6	-2.0650573
102	0xbf2b8793	-0.67003745
103	0xc030045e	-2.7502666
104	0x3e9fa681	0.3118172
105	0xbf04535e	-0.5168971
106	0xbb9f5d54	-0.0048634205
107	0xbfb55355	-1.4166056
108	0xbe653d5f	-0.22386692
109	0xbf5348ef	-0.8253316
110	0x3e95cd99	0.2925842
111	0xbe00bb91	-0.12571551
112	0xc09ec2af	-4.961265
113	0xbe1a9d94	-0.15099174
114	0x3ec6e0fb	0.3884352
115	0xc0339fae	-2.806621
116	0xbf287d2e	-0.6581601
117	0xbded86ce	-0.115979776
118	0xbf5c9ca8	-0.8617654
119	0xbea37b81	-0.31930164
120	0xbd259801	-0.040428165
121	0x3d7a0a8e	0.061045222
122	0xbff51b70	-1.9148998
123	0xbf1dae37	-0.61593956
124	0xc011b081	-2.276398
125	0xbeac40f6	-0.3364331
126	0x3d68c300	0.05682659
127	0xbf437d61	-0.7636319
128	0xc01847fc	-2.3793936
129	0xbd8e1592	-0.06937708
130	0xbf8e3405	-1.1109625
131	0xc020feac	-2.515544
132	0xc01ede73	-2.4823272
133	0xc009b79a	-2.1518312
134	0xc02bb548	-2.6829395
135	0xc06310ed	-3.547908
136	0xbf112269	-0.5669313
137	0xbf2b9b4b	-0.67033833
138	0xbfbb0fac	-1.4614158
139	0xc015bf9f	-2.3398206
140	0xc04bdd08	-3.1853657
141	0xbd17ab76	-0.037028752
142	0xbf0ab17d	-0.54177076
143	0xbf236422	-0.63824666

body.0.body.0.weight_g f4 [144, 1, 1, 1]
0	0x3fdfd399	1.748645
1	0x4014ecbe	2.3269496
2	0x400544f8	2.0823345
3	0x3fe68aec	1.8011146
4	0x4010f02f	2.2646596
5	0x3f9068ba	1.128196
6	0x40049c68	2.0720463
7	0x3ff82c9e	1.9388616
8	0x3fa6ce3f	1.3031691
9	0x3fb50751	1.4142858
10	0x4022e27e	2.545074
11	0x3ff9d0b7	1.951682
12	0x4054d927	3.325754
13	0x403359ee	2.8023639
14	0x404e35c4	3.2220316
15	0x3fd1258e	1.6339586
16	0x3fa73ebd	1.3066021
17	0x400d436d	2.2072403
18	0x4004a094	2.072301
19	0x40198908	2.3989887
20	0x403a2693	2.9086044
21	0x4046023f	3.093887
22	0x402fec67	2.7488039
23	0x406f9bb3	3.7438781
24	0x4010caf3	2.262387
25	0x3fa6dd76	1.3036335
26	0x405b518a	3.4268517
27	0x401474de	2.319633
28	0x3fdf1d16	1.7430751
29	0x4049df47	3.1542528
30	0x3fe2f220	1.7730141
31	0x4028f770	2.6401024
32	0x4018461d	2.3792794
33	0x3ffb8523	1.9650005
34	0x4011f526	2.2805877
35	0x3fe829db	1.8137773
36	0x4031aaf3	2.776059
37	0x3fd165b3	1.6359161
38	0x404dc91a	3.2153993
39	0x402488b3	2.5708435
40	0x3fcd61f8	1.6045523
41	0x4006a44e	2.1037784
42	0x4010e873	2.2641876
43	0x407f43f8	3.9885235
44	0x4035ffbb	2.8437335
45	0x3fa14e90	1.26021
46	0x40243811	2.565922
47	0x401c7ed9	2.4452422
48	0x3fb1575c	1.3854785
49	0x3fc62c17	1.5482205
50	0x40630544	3.5471964
51	0x40299456	2.6496787
52	0x40203005	2.5029309
53	0x40130e7c	2.297759
54	0x4041f279	3.0304244
55	0x4006f8b4	2.1089296
56	0x3f88756f	1.0660838
57	0x3f932a2f	1.1497248
58	0x3fa10cda	1.2582047
59	0x40061c89	2.0954916
60	0x405b67a7	3.4282014
61	0x3fda51a1	1.7056161
62	0x40088d17	2.1336114
63	0x3fe085ba	1.754081
64	0x3f9b48bb	1.213157
65	0x400660e3	2.0996635
66	0x4011d5aa	2.278666
67	0x3fcf14c2	1.617821
68	0x3fcf608d	1.620134
69	0x3ffe36f8	1.9860525
70	0x3fde75bb	1.7379678
71	0x40463bb5	3.0973942
72	0x3fd14099	1.6347839
73	0x4010eeb2	2.2645688
74	0x3fc3233a	1.5245125
75	0x4062f609	3.5462668
76	0x3ff2e498	1.8976011
77	0x3fdb8773	1.7150711
78	0x4021a330	2.5255852
79	0x405f9b17	3.493841
80	0x40531678	3.2982464
81	0x400891e7	2.1339052
82	0x3ffc2275	1.9698015
83	0x4081074d	4.032141
84	0x3fe9c6d6	1.8263805
85	0x4093017c	4.593931
86	0x400d35c1	2.2064059
87	0x401c3944	2.4409952
88	0x3ffa8898	1.9572935
89	0x3fcb779a	1.5895875
90	0x401958c7	2.3960435
91	0x3fdc65b1	1.7218534
92	0x3fc38abd	1.5276715
93	0x3fdaaa00	1.708313
94	0x3ff085cf	1.8790835
95	0x3fd40b5a	1.6565964
96	0x4064bf06	3.5741591
97	0x400516c6	2.079515
98	0x400956b7	2.1459177
99	0x40834100	4.1016846
100	0x40178561	2.3675158
101	0x3ff7af27	1.9350327
102	0x3fd376f0	1.6520672
103	0x402dc106	2.7149062
104	0x3fe45834	1.7839417
105	0x400c4c3f	2.1921537
106	0x4045c8b5	3.0903752
107	0x3fcf333e	1.6187513
108	0x4013123e	2.2979884
109	0x3fff9b7f	1.9969329
110	0x4049b5a4	3.1517115
111	0x4043a8c1	3.057175
112	0x40383af3	2.878598
113	0x3fed400b	1.8535169
114	0x405c2db9	3.4402907
115	0x40262d22	2.5965047
116	0x3fdfdecc	1.7489867
117	0x3fe0b653	1.7555641
118	0x3fcc6a0c	1.5969863
119	0x400ea34c	2.2287169
120	0x40067aa4	2.1012354
121	0x40051164	2.0791864
122	0x40144e03	2.3172615
123	0x4020c84d	2.5122254
124	0x400c78f6	2.1948829
125	0x3fcc8cf6	1.5980518
126	0x4083056b	4.0944114
127	0x3fbab1e3	1.4585537
128	0x400ec214	2.2305956
129	0x40061675	2.0951207
130	0x3fbeb697	1.4899472
131	0x404f17f5	3.2358372
132	0x403abff9	2.917967
133	0x401747f5	2.363767
134	0x40263ae7	2.597345
135	0x403b6a09	2.9283469
136	0x3ff303c7	1.8985528
137	0x3fa2e9fe	1.2727659
138	0x3fe0b26b	1.7554449
139	0x40269729	2.602976
140	0x400b5784	2.1772165
141	0x400269f0	2.037716
142	0x400bb993	2.1832016
143	0x40179c9a	2.3689332

body.0.body.0.weight_v f4 [144, 24, 1, 1]
0	0x3f823c67	1.0174683
1	0xbea94277	-0.3305852
2	0xbeeadfe8	-0.45873952
3	0xc055a676	-3.338285
4	0x3dfc23f6	0.123115465
5	0xc0a10fd3	-5.0331817
6	0x401be07c	2.4355764
7	0xbfefc479	-1.8731834
8	0x3f00595c	0.5013635
9	0xc024e534	-2.5764894
10	0xbf1a6582	-0.6031114
11	0xbd5ac4b7	-0.05341026
12	0xbf9a3e18	-1.20502
13	0x40099606	2.1497817
14	0x3fcb6572	1.5890334
15	0x3f057570	0.5213232
16	0xbfa4eea5	-1.2885329
17	0xbd157a51	-0.036493603
18	0xbda5bdea	-0.08092864
19	0x400c8798	2.195776
20	0x3eac5719	0.336602
21	0x401642d2	2.3478284
22	0xbf4f26a8	-0.8091836
23	0x3f1f87bb	0.62316483
24	0x3c8fc564	0.017550178
25	0x3f1f1d90	0.62154484
26	0xbfdf13e8	-1.742795
27	0x3e02405c	0.12719864
28	0xbdeb4865	-0.114884175
29	0x3f5c6a76	0.86099946
30	0x3f0733c4	0.52813363
31	0x3fcd9992	1.6062491
32	0xbf38eb10	-0.72233677
33	0x3d1c72b4	0.038195327
34	0xbfa3526a	-1.2759526
35	0x4022dc30	2.5446892
36	0x400f7848	2.2417164
37	0x4086d8a9	4.213948
38	0x4002a1cd	2.0411255
39	0x3f9f971d	1.2467991
40	0x3fa96fbf	1.3237227
41	0xc053d6bb	-3.309981
42	0x3f03c56b	0.5147311
43	0x3f651a11	0.894929
44	0xbea22507	-0.31668875
45	0x401bfd7d	2.4373467
46	0x402e55a6	2.7239776
47	0xbdfabd9d	-0.12243197
48	0xc00338fc	-2.050353
49	0x40042d63	2.0652702
50	0xbfa575da	-1.292659
51	0x4075b0bf	3.8389127
52	0x3f0d2fac	0.55150867
53	0x3d0b8142	0.034058817
54	0xc013b432	-2.3078732
55	0x3fc77bfd	1.5584713
56	0xbf5b4fd7	-0.856687
57	0xbf1090a3	-0.564707
58	0xc071dfa4	-3.779275
59	0xbeeb656d	-0.4597582
60	0x3fa1389f	1.2595404
61	0xc0538bd7	-3.3054101
62	0x3ff5381a	1.9157746
63	0xbe089bc0	-0.13340664
64	0xbfebd66e	-1.8424814
65	0xbfda3eb2	-1.7050383
66	0x3fd14c3b	1.6351389
67	0xbf7cff3a	-0.98826945
68	0x3f799739	0.9749637
69	0xc00166f8	-2.0219097
70	0x3fc9166f	1.5709971
71	0xbd1001f4	-0.035158113
72	0x3e4e691a	0.2015728
73	0x3f3fa73b	0.7486455
74	0xc015a12f	-2.3379629
75	0x409f2d06	4.974246
76	0xbf121cd8	-0.5707526
77	0xbef12075	-0.47095075
78	0x3faa8b11	1.332369
79	0x3fa5c2fc	1.295013
80	0xbfd86ca7	-1.6908158
81	0xbee8c66f	-0.45463893
82	0x3e9583fe	0.29202265
83	0xbe6ef9b2	-0.23337439
84	0x3e886ad6	0.2664401
85	0xbee8f9dd	-0.4550313
86	0xc02f1785	-2.7358105
87	0x3ea7e15e	0.3278913
88	0x3ea495f5	0.32145658
89	0xbfb64d2d	-1.4242302
90	0xbfedecfb	-1.8587946
91	0xbe48ef74	-0.19622594
92	0xbe8931dc	-0.26795852
93	0x3fb97488	1.4488688
94	0xbf7653f6	-0.96221864
95	0x3d2eecd0	0.04270631
96	0x3f8d0aa7	1.1018876
97	0xbe816adb	-0.25276837
98	0xc0026dd3	-2.0379531
99	0xbf1b29b1	-0.6061049
100	0x3ef3bcaa	0.47604877
101	0x3fae786a	1.3630497
102	0xbf90f8da	-1.1325943
103	0x3eb25568	0.34830785
104	0xbf840006	-1.0312507
105	0xbf16f176	-0.5896219
106	0xbe88d60b	-0.26725802
107	0xbe8a7af4	-0.2704693
108	0x3ef36f86	0.47546023
109	0x39aba441	0.0003273804
110	0xbfee42f8	-1.8614187
111	0x40a59398	5.174267
112	0x3ed5f320	0.41787052
113	0xbf9898c9	-1.1921626
114	0x3fca5caf	1.5809535
115	0xc0088c0b	-2.1335475
116	0x3f667d27	0.9003472
117	0xbf072a7e	-0.5279921
118	0xc06f37b6	-3.7377753
119	0xbdb03484	-0.086037666
120	0x4011f345	2.280473
121	0xbeb467b4	-0.3523537
122	0xbf277e51	-0.6542712
123	0xc09c522a	-4.88503
124	0x3efebbef	0.49752757
125	0xbeb523d9	-0.35378912
126	0xbe099d50	-0.13438916
127	0xbf3dbd6c	-0.7411716
128	0x404f8325	3.2423794
129	0x4005dc28	2.0915623
130	0x3f67cd22	0.9054738
131	0x3d6feebb	0.05857728
132	0xbe733d3e	-0.23753831
133	0x4020ccc7	2.5124986
134	0x3eccac48	0.3997519
135	0xc0202b68	-2.5026493
136	0xbf7feaa7	-0.99967426
137	0x3f97ab3b	1.184913
138	0x3f826161	1.0185968
139	0x3f55fac2	0.8358575
140	0x3e46ebf3	0.19425945
141	0xbf05da2d	-0.52286035
142	0xc05bab97	-3.432348
143	0x3fa045a9	1.2521259
144	0x3fc34705	1.5256048
145	0xbf1eac2a	-0.6198145
146	0xbf88a5cf	-1.0675601
147	0xbf7d2181	-0.9887925
148	0xbd5b3d92	-0.053525515
149	0xbfe74874	-1.8068986
150	0xbf0de08f	-0.55420774
151	0x401e69f2	2.4752164
152	0xbe7f8caf	-0.2495601
153	0xbf4acf50	-0.79222584
154	0xc09d301f	-4.912124
155	0xbfca3f8f	-1.5800647
156	0xc0639015	-3.555669
157	0xbd6996b1	-0.057028476
158	0x3f583430	0.8445463
159	0x3cba9e2f	0.022780506
160	0xc0272fbd	-2.6122887
161	0x402c87e7	2.6957948
162	0xbf97ad0c	-1.1849685
163	0x3f1ed122	0.6203786
164	0x3ebf68d8	0.37384677
165	0xbff4cb27	-1.9124497
166	0x3fb3ed1c	1.4056735
167	0xbe147999	-0.14499511
168	0xbf753570	-0.95784664
169	0xbf48d0b1	-0.7844344
170	0xc00f6eb9	-2.241133
171	0x3fb483c4	1.4102712
172	0xbf339aa8	-0.7015786
173	0x3e9d74e1	0.30753234
174	0x3fbdb3af	1.482046
175	0x40243d8f	2.5662572
176	0xc0864485	-4.195864
177	0xbd4e498c	-0.05036311
178	0xbf85d148	-1.0454493
179	0xbf2f37db	-0.68444604
180	0xbfae1283	-1.3599399
181	0xbe561a5c	-0.20908493
182	0x3e3fde93	0.18737249
183	0x3d668f56	0.05628904
184	0xc0116d21	-2.2722857
185	0x3f3aaacc	0.72916865
186	0x3f0f70a8	0.56031275
187	0xc026d3b9	-2.6066725
188	0x3f866db9	1.0502235
189	0x400e4bcd	2.2233765
190	0x40745415	3.817632
191	0x3d1c3906	0.03814032
192	0x3fe45750	1.7839146
193	0x3fe507e8	1.7893038
194	0xbf940da6	-1.1566665
195	0xc0600b8f	-3.5007055
196	0x3f89a4e7	1.0753449
197	0x4038c923	2.8872764
198	0xc015485e	-2.332542
199	0xc01be5b6	-2.4358954
200	0xbcc9738e	-0.024591234
201	0x3f575dc8	0.84127474
202	0xc002586c	-2.0366468
203	0x3f419f71	0.75633913
204	0xbf4f5782	-0.809929
205	0xbf9d0517	-1.2267178
206	0xbe8b2bab	-0.27181754
207	0xbfc503f8	-1.5391836
208	0x408a5a3b	4.3235145
209	0xc0059ca2	-2.087685
210	0x3f72ee42	0.948948
211	0x3efb63c9	0.49099568
212	0xbeb0e19e	-0.34547132
213	0x3fd6dbad	1.678579
214	0x3f561d39	0.8363834
215	0xbf2a4a1e	-0.66519344
216	0x40679da9	3.6189978
217	0xbe159de7	-0.14611016
218	0xbfb18cf3	-1.3871139
219	0xc004a05f	-2.0722883
220	0x3f12d96d	0.57363015
221	0xbc4f5bfd	-0.012656209
222	0xbeb416fd	-0.3517379
223	0x3fabd5db	1.3424639
224	0xc0222a4c	-2.5338316
225	0x3e60eb4a	0.21964756
226	0x3fdd7197	1.730029
227	0xc038a1e4	-2.884881
228	0x3f11bcb2	0.5692855
229	0xbf9c15fb	-1.2194208
230	0x3f488098	0.7832122
231	0xc00adadf	-2.1696088
232	0xbf530664	-0.82431626
233	0xbf6acc16	-0.9171766
234	0x3f7e8412	0.99420273
235	0x400d46ed	2.207454
236	0x3f9f3273	1.2437271
237	0x3fd72d01	1.6810609
238	0xc0261030	-2.594738
239	0x3e5db9fe	0.21652982
240	0xbf023610	-0.5086374
241	0x409ff587	4.9987216
242	0xbf4bd37a	-0.7961956
243	0xc01c9a9c	-2.4469366
244	0x3f5b5bf3	0.8568718
245	0x3d768c94	0.06019266
246	0xc0a5a6b5	-5.1766
247	0x3ea047fa	0.31304914
248	0xbee0cd65	-0.43906704
249	0x3fa12dd8	1.2592115
250	0xbfc66c3f	-1.5501784
251	0x3da28fa6	0.07937555
252	0x3fe3c98d	1.7795883
253	0x40259864	2.5874262
254	0xbf069842	-0.52576077
255	0xbeaf6780	-0.34258652

body.0.body.2.bias f4 [20]
0	0xbd17538e	-0.03694492
1	0xbeb1f8a6	-0.34760016
2	0xbea30e6c	-0.3184694
3	0xbde7affa	-0.11312862
4	0xbecca1f3	-0.39967307
5	0xbe7b0776	-0.24514565
6	0xbc0f2580	-0.008736968
7	0xbd85c920	-0.06532502
8	0xbc0693d6	-0.008213958
9	0xbf008879	-0.5020824
10	0x3dea9f0a	0.114561155
11	0xbebbcbf1	-0.36679032
12	0x3e198672	0.14992693
13	0x3d9f8442	0.07788898
14	0xbd4c72bd	-0.04991411
15	0x3eb148e1	0.34625915
16	0xbed9b6fb	-0.42522416
17	0xbdc69ed6	-0.09698264
18	0xbdf12f1b	-0.11776563
19	0x3e1f4768	0.15554583

body.0.body.2.weight_g f4 [20, 1, 1, 1]
0	0x3fe45c73	1.7840713
1	0x3fcac789	1.5842143
2	0x3fe3860e	1.7775285
3	0x4026b170	2.60458
4	0x3ffe7eb8	1.9882421
5	0x3fb610f7	1.4223927
6	0x3fd02a27	1.6262864
7	0x402fc865	2.746606
8	0x400f970b	2.243594
9	0x40558eca	3.3368402
10	0x4016745b	2.3508518
11	0x3fb13ab2	1.3846037
12	0x3fa1ffdc	1.2656207
13	0x402f19f5	2.7359593
14	0x402546c0	2.5824432
15	0x406588b7	3.5864694
16	0x3fc43b82	1.533066
17	0x3fbe958b	1.4889387
18	0x40325972	2.7867093
19	0x400becb3	2.186322

body.0.body.2.weight_v f4 [20, 144, 1, 1]
0	0x3f9d6f52	1.2299597
1	0x400e8cc0	2.2273407
2	0x3f91ce5f	1.1391104
3	0xbff00bae	-1.8753564
4	0x402e729c	2.7257452
5	0xbdc36b07	-0.09541898
6	0xbf0a7c05	-0.5409549
7	0x3fd409b0	1.6565456
8	0x3f857066	1.0424926
9	0xc01c0158	-2.437582
10	0x3ec9f253	0.3944269
11	0xbd186786	-0.037208103
12	0x40bad980	5.8390503
13	0xbebdee01	-0.37095645
14	0xbe97a006	-0.29614276
15	0xbf49527a	-0.78641474
16	0xbd85b1f5	-0.06528083
17	0x4031fe65	2.781152
18	0xbee34d11	-0.44394735
19	0x3f65696b	0.8961398
20	0x3f048066	0.5175842
21	0x3f04e6d1	0.519147
22	0xbfd53f5a	-1.6659958
23	0x3f0dc1dd	0.55373937
24	0x3ff072c8	1.8785028
25	0x3f0724ff	0.52790827
26	0x4055cda2	3.3406758
27	0x3ea184c1	0.31546596
28	0xbef44e0d	-0.47715798
29	0xbf092c6b	-0.535834
30	0x3f804176	1.0019977
31	0xc0171af8	-2.361021
32	0x401b06ab	2.422282
33	0x3edd127f	0.43178174
34	0xc0654f1f	-3.5829542
35	0xbfa022c5	-1.2510611
36	0x3fa73321	1.3062478
37	0xbf0eaf7c	-0.5573652
38	0xbf6107b8	-0.879024
39	0x403cd6c2	2.9506078
40	0x3feb0faa	1.8364155
41	0xbf8bf96a	-1.093549
42	0xc0156367	-2.334192
43	0xbf20f059	-0.6286674
44	0xc014560e	-2.3177524
45	0x3dc6c21a	0.09704991
46	0x3e594711	0.21218516
47	0x4073f21e	3.8116527
48	0xc0049ae0	-2.0719528
49	0xbf01a1f5	-0.5063775
50	0xbcb0cbde	-0.021581586
51	0x3e0f2ce5	0.1398197
52	0x40186664	2.3812494
53	0xbeace635	-0.33769384
54	0xbefe9369	-0.4972184
55	0xbf9ce3db	-1.2257036
56	0x3e720954	0.23636371
57	0x3d111367	0.035418894
58	0x3f2fd0ff	0.6867828
59	0xbf8d7f60	-1.1054497
60	0x4011875c	2.2738867
61	0x3e192a5b	0.14957564
62	0x3f3497e7	0.70544285
63	0x3f25f38e	0.6482476
64	0x3f6402f3	0.89067
65	0xbe02c7af	-0.12771486
66	0xbf88f19b	-1.0698732
67	0x3d84eedf	0.064908735
68	0xbf9fe623	-1.2492107
69	0x3e0873af	0.1332538
70	0x3f946524	1.1593366
71	0x40441053	3.0634964
72	0xbfb6b28e	-1.427324
73	0x40723cf8	3.7849712
74	0xbf852c4f	-1.0404147
75	0xbe5531dc	-0.20819801
76	0xbf858267	-1.0430421
77	0xbfda15e6	-1.7037933
78	0x3fa5c3c6	1.295037
79	0x3f199733	0.59996337
80	0xbf3a980f	-0.72888273
81	0xbf515423	-0.8176901
82	0x3fabe1c2	1.3428271
83	0x3e9f4e7e	0.31114572
84	0x3ed2a018	0.41137767
85	0xbd5eaecd	-0.05436592
86	0xbe3270ac	-0.17425793
87	0x40953097	4.6621814
88	0x3ebf9724	0.3742
89	0x3d22b498	0.03972301
90	0xbefa75d3	-0.48918018
91	0xbf89dd16	-1.0770595
92	0x3f38669f	0.7203159
93	0xbf641e38	-0.8910861
94	0xbe3ea3a7	-0.18617116
95	0x3fa84aaf	1.3147792
96	0xc0219eba	-2.525313
97	0xbdb69c14	-0.08916488
98	0xbee74206	-0.4516756
99	0x40c63574	6.194025
100	0x3f9bb8bd	1.2165753
101	0x3da013b6	0.078162596
102	0x400012eb	2.0011547
103	0x3fd8f73b	1.6950449
104	0xbeddc535	-0.4331452
105	0xbf22f205	-0.6365054
106	0x3f603285	0.87577087
107	0x3f42e8c1	0.76136404
108	0x3f9d75dd	1.2301594
109	0xbe02ac89	-0.1276113
110	0xc06c8dda	-3.696158
111	0x4002722a	2.038218
112	0x3fb1060d	1.3829972
113	0x3fc25289	1.5181438
114	0xbe9ab6b3	-0.30217513
115	0x400dce5f	2.215721
116	0x3f004fee	0.50121963
117	0x3e947378	0.28994346
118	0xbed4d272	-0.41566807
119	0x3f1f0e4d	0.62131196
120	0x3ef3ef81	0.47643664
121	0x40280736	2.6254401
122	0xbea09ac9	-0.31368092
123	0xbf50a1eb	-0.8149707
124	0x3fefba1d	1.8728672
125	0x3e2105bc	0.15724844
126	0xbf825ab4	-1.018393
127	0x3faebf71	1.3652173
128	0x3f88d365	1.0689512
129	0xbfe5c6fa	-1.7951348
130	0x3fbb4f39	1.4633552
131	0xbf4da814	-0.8033459
132	0x3fceb58c	1.6149154
133	0xc044c6d7	-3.0746362
134	0x404f2422	3.2365804
135	0x40b0980a	5.5185595
136	0x3f0c257c	0.54744697
137	0x40278404	2.6174326
138	0x3d809dab	0.06280073
139	0x4029b0f3	2.6514251
140	0xbf6ef350	-0.93340015
141	0x3f2e0d1a	0.6798874
142	0xbf5de8a5	-0.8668311
143	0xbfda7af6	-1.7068775
144	0xbfff2348	-1.9932642
145	0x3f1f3feb	0.62206906
146	0xbefbbcb8	-0.49167418
147	0x3f49cb66	0.78825986
148	0x3f6b9051	0.92017084
149	0xbee1ec36	-0.44125527
150	0xbefaefaa	-0.49010974
151	0x3f68f4c6	0.90998495
152	0x3d0f947b	0.03505371
153	0xbf41578c	-0.7552421
154	0xc00874f7	-2.132139
155	0xbf3914de	-0.72297466
156	0xc0995dda	-4.7927065
157	0x3f547180	0.8298569
158	0xbee9bbfa	-0.45651227
159	0x3fc4c5d9	1.5372878
160	0x3db419c6	0.087939784
161	0xc014ac61	-2.3230212
162	0x3f2ace78	0.66721296
163	0xc055359e	-3.3313975
164	0x3f95e847	1.171151
165	0x3f300f86	0.68773687
166	0x403420dd	2.8145058
167	0x3f1606e2	0.5860425
168	0x3fc9b2d2	1.5757697
169	0x400d2aad	2.2057297
170	0x3e315826	0.17318782
171	0x3f8d230c	1.102632
172	0xbfcc0db4	-1.5941682
173	0xbfd4a36a	-1.661237
174	0xbefd159a	-0.49430543
175	0xc081cb68	-4.05608
176	0x3f838521	1.0275003
177	0xbf24d20f	-0.64383024
178	0xc0130154	-2.296956
179	0xbe81e58c	-0.25370443
180	0x3e52e4c4	0.2059508
181	0xbf6818ba	-0.9066273
182	0x3ff8633c	1.9405284
183	0x3fa87858	1.3161726
184	0x3d8c7753	0.06858697
185	0x3fce5db0	1.6122341
186	0x4062054a	3.5315728
187	0xbee10e6e	-0.4395632
188	0x3dcd4b48	0.100241244
189	0x3ef8cf8f	0.48595855
190	0x40213bb9	2.5192702
191	0x40748b54	3.821004
192	0xbfbf1a4a	-1.4929898
193	0xbbfb6a46	-0.007672581
194	0x4086c9b8	4.212124
195	0xbdf9b32e	-0.12192379
196	0xc0253b38	-2.5817394
197	0xbd8822b0	-0.06647241
198	0xc037f4ab	-2.8743083
199	0x3fc53ffe	1.5410154
200	0x3fad0e8b	1.3520063
201	0xbf007b19	-0.5018783
202	0x3f8d1a44	1.1023641
203	0xbdfdeadb	-0.12398311
204	0x4003d9e3	2.0601737
205	0xbed6a4df	-0.41922662
206	0x3f7d37b2	0.9891311
207	0x3db07337	0.086157255
208	0x3d593881	0.053032402
209	0xbf9ccec2	-1.2250597
210	0xbde0a8cd	-0.10969696
211	0x3d328799	0.043586347
212	0x3e8a6c75	0.2703587
213	0x3ea3b56c	0.3197435
214	0xbfafd07c	-1.3735499
215	0xbf34f2fe	-0.70683277
216	0xc011b5d1	-2.2767222
217	0xbc98eac2	-0.018666629
218	0xbf55710e	-0.8337563
219	0x4002fa96	2.0465446
220	0x404be08f	3.185581
221	0xbf301f28	-0.6879754
222	0xbec2db46	-0.38057917
223	0xbfcd9928	-1.6062365
224	0xbfdd481a	-1.7287629
225	0xbf126d6b	-0.5719821
226	0xbeacb760	-0.33733654
227	0x3fb66c9e	1.4251897
228	0x3f86bedf	1.0526999
229	0xbea67537	-0.32511303
230	0x3f67fc04	0.9061892
231	0x3d3a2df7	0.04545399
232	0xbddc336e	-0.10751997
233	0xbf5177f6	-0.8182367
234	0x3fefe605	1.8742071
235	0x3f27eec5	0.6559871
236	0x3f4acb6e	0.7921666
237	0x3ed9f2d3	0.42568073
238	0x3f81f424	1.0152631
239	0x3f62bbcd	0.8856781
240	0x3ff4ea9d	1.9134098
241	0xbfc5e0da	-1.5459244
242	0xbfc65e96	-1.5497615
243	0x3ec2152e	0.37906784
244	0xbe3fe59e	-0.18739936
245	0x3f948237	1.1602238
246	0xbff68e6b	-1.9262213
247	0xbf815b9a	-1.010608
248	0xbdf379b2	-0.11888446
249	0xbfa47f0d	-1.2851273
250	0x403f51e0	2.9893723
251	0xbf4d4b5d	-0.8019312
252	0x3cb5bec8	0.022185698
253	0xbfe48820	-1.7854042
254	0xbebceac9	-0.36897877
255	0x3f124e5f	0.57150835

body.0.body.3.bias f4 [24]
0	0xbd8df86b	-0.069321476
1	0x3da9e297	0.08295172
2	0xbf5ae383	-0.85503405
3	0x3e2c8d72	0.16850832
4	0xbd002b01	-0.03129101
5	0xbdd94918	-0.10609645
6	0x398cf72d	0.0002688704
7	0xbd540ea0	-0.05177176
8	0xbe3f7d46	-0.18700132
9	0xbd946285	-0.072453536
10	0x3e369b70	0.17832732
11	0xbce83453	-0.028345263
12	0x3cafd5bb	0.02146422
13	0x3e135930	0.14389491
14	0x3dcbcff4	0.09951773
15	0x3ea6a3b2	0.32546765
16	0xbd2978c6	-0.041374944
17	0xbd04a0e6	-0.032380007
18	0xbdde9e14	-0.10869995
19	0xbe265ab9	-0.16245545
20	0x3edf9e56	0.43675488
21	0x3d8f9e6e	0.0701264
22	0x3ee48ccd	0.44638672
23	0xbdd9113a	-0.10598989

body.0.body.3.weight_g f4 [24, 1, 1, 1]
0	0xbf3b6929	-0.73207337
1	0x3f111005	0.5666507
2	0xbf33115e	-0.69948375
3	0x3f3dd68c	0.741555
4	0xbedc9708	-0.43083978
5	0x3f22fb6a	0.6366488
6	0x3f2a9433	0.66632384
7	0x3f17bb81	0.59270483
8	0xbf3cebae	-0.7379712
9	0xbf1bc6bc	-0.6085012
10	0x3f243a63	0.6415159
11	0x3edd6c75	0.4324681
12	0xbf1b455f	-0.60652727
13	0x3f50aefe	0.81517017
14	0x3f528551	0.82234675
15	0x3f23fb5b	0.64055413
16	0xbf13720f	-0.57595915
17	0xbf41e1ca	-0.7573515
18	0xbefe4abf	-0.49666402
19	0x3f0b967a	0.54526484
20	0x3f1129a8	0.5670419
21	0xbf6fca82	-0.9366838
22	0x3f989308	1.191987
23	0x3f1ce3ce	0.612851

body.0.body.3.weight_v f4 [24, 20, 3, 3]
0	0xbec650ef	-0.38733622
1	0xbf793434	-0.9734528
2	0x3ee9cf63	0.45666036
3	0xbf2709ee	-0.65249527
4	0xbf0bcf6c	-0.54613376
5	0xbfa02746	-1.2511985
6	0x3ee827ae	0.45342773
7	0x3e626fac	0.22112912
8	0x3f8481db	1.0352129
9	0xbeb62eaa	-0.35582477
10	0xc01b6474	-2.4280062
11	0xbe930165	-0.28712
12	0xbf87a76b	-1.0597967
13	0x403b13fe	2.9230952
14	0xbfb95717	-1.4479703
15	0x3f220617	0.6329054
16	0xbf55769c	-0.8338411
17	0xbf4ac2ec	-0.7920368
18	0x3cb459d3	0.022015488
19	0x3f087dbf	0.53316873
20	0x3f612e59	0.87961346
21	0x401391fe	2.3057857
22	0x400a28a9	2.1587317
23	0x3fc0d33f	1.5064467
24	0x3f402552	0.75056946
25	0x3fa57966	1.2927673
26	0x3f804c6b	1.0023321
27	0xbfb04ec7	-1.3774041
28	0x3f1171b8	0.56814146
29	0xbeaabda8	-0.3334782
30	0xbee17c3d	-0.440401
31	0xc0a103b7	-5.0317035
32	0xbeac50da	-0.33655435
33	0xbee97e9d	-0.4560441
34	0xbf9cd6ba	-1.2253029
35	0x3e837e97	0.25682518
36	0xbf88c505	-1.0685126
37	0x3dd6a80c	0.10481271
38	0x3e0c35c4	0.13692385
39	0x3e0a7dbd	0.13524528
40	0xc0194b11	-2.3952067
41	0x3f8f0e8a	1.1176312
42	0xbe6e1381	-0.23249628
43	0x3fd00f01	1.6254579
44	0x3e9e6ad4	0.30940878
45	0xbf5375c0	-0.8260155
46	0xbfda8026	-1.7070358
47	0xbee12975	-0.43976942
48	0xc0208a14	-2.5084276
49	0xbf93e831	-1.1555234
50	0xbf3ebfa1	-0.7451115
51	0xbf5f5564	-0.8723967
52	0xbeb90f80	-0.36144638
53	0x3f88e1ae	1.0693872
54	0xbdc9bc01	-0.09850312
55	0x401b8dad	2.4305222
56	0x3f7db82c	0.9910915
57	0xbecef28c	-0.40419424
58	0xc01a27f2	-2.408688
59	0x3bdbefa4	0.006711917
60	0xbed94151	-0.42432645
61	0x3fa5ff82	1.29686
62	0xbfb33db5	-1.4003206
63	0x3ee27eda	0.44237405
64	0xbd8d3ea0	-0.068967104
65	0xbf825f88	-1.0185404
66	0x3f8cbba5	1.0994765
67	0x3ff36e68	1.9018068
68	0xbfc3489e	-1.5256536
69	0xbec0f170	-0.37684202
70	0xc039201a	-2.8925843
71	0xbedb2e00	-0.42808533
72	0xbcfc9110	-0.03083089
73	0xc01c4462	-2.4416738
74	0xbe530650	-0.20607877
75	0x3f8093dd	1.0045124
76	0x40562625	3.3460782
77	0xbfba9fbb	-1.4579996
78	0x3e8f0edd	0.27941027
79	0xbf76f717	-0.9647078
80	0x3e846494	0.25857985
81	0x3ed6accc	0.4192871
82	0xbfb57a0b	-1.417787
83	0xbf02d1bc	-0.5110128
84	0xbf2ad6d3	-0.66734046
85	0xc10d5ba0	-8.834869
86	0x3fb158ee	1.3855264
87	0x3ee1f29f	0.44130418
88	0x4009eae0	2.1549606
89	0x3ebc5795	0.3678557
90	0xbee99dfe	-0.4562835
91	0x3e82b5b2	0.25529248
92	0xbf5b247c	-0.85602546
93	0x3f599ff0	0.8500967
94	0xbfadd89b	-1.3581728
95	0x3f87abbd	1.0599285
96	0xbf3426d5	-0.7037175
97	0x3fa89d86	1.3173072
98	0x3f17dcbd	0.59321195
99	0x3f97da56	1.1863506
100	0xbfe49101	-1.7856752
101	0x3f1afc95	0.6054166
102	0x3d6f7ada	0.05846677
103	0xc0b0adb0	-5.521202
104	0x3f75bcfd	0.959915
105	0x3f8ad18a	1.0845196
106	0x3f8ca3aa	1.0987446
107	0xbe0773e7	-0.13227807
108	0x3ea28876	0.31744736
109	0xbf5ceb1d	-0.86296254
110	0xbceeac30	-0.02913484
111	0x3f38f14c	0.7224319
112	0x40909d52	4.519204
113	0xbe5b8cb3	-0.21440391
114	0x3f7f76a9	0.99790436
115	0xbed08f46	-0.4073431
116	0x3eeda38c	0.4641384
117	0xbeac40c1	-0.33643153
118	0xbe30c911	-0.17264201
119	0x3ec23004	0.37927258
120	0xbf4cbd91	-0.79976755
121	0xc09bc254	-4.8674717
122	0xbfa40e47	-1.2816857
123	0xbf3eea58	-0.7457633
124	0x3f0b93c6	0.5452236
125	0xbca33cb3	-0.019926405
126	0xbfa7c273	-1.3106216
127	0x40449aac	3.0719404
128	0x3f2c4ece	0.67307746
129	0x3fc11755	1.5085245
130	0xbfc687ce	-1.5510194
131	0xbdfa6c58	-0.12227696
132	0x3e7919a0	0.24326181
133	0x3f020981	0.5079575
134	0xbebeed0b	-0.37290224
135	0xbc88986c	-0.016674243
136	0xbee97f20	-0.456048
137	0xbf0e298b	-0.5553214
138	0xbec801bc	-0.39063823
139	0x3ec0be53	0.37645206
140	0xbfe9c797	-1.8264035
141	0xbf4bc3ca	-0.79595625
142	0xc00bd4ba	-2.1848588
143	0xbec61720	-0.38689518
144	0x3f0db9ef	0.5536184
145	0x3f83cc55	1.0296732
146	0x3f445e6d	0.7670658
147	0xbfb7accf	-1.4349612
148	0x3f8a78b5	1.0818087
149	0xc01f39f4	-2.4879122
150	0x3e9bc8d2	0.3042665
151	0x3d4d622c	0.050142452
152	0xbdf2c394	-0.1185371
153	0xbd731254	-0.05934365
154	0xc013d67c	-2.309966
155	0x3e018e3f	0.12651919
156	0xbf76a609	-0.963471
157	0xc083bb86	-4.116641
158	0xbebcd585	-0.36881652
159	0x4008992a	2.1343484
160	0x401db3e0	2.4641037
161	0x3f87c116	1.06058
162	0x3e090aff	0.13383101
163	0x3df1bec5	0.118039645
164	0xbe8b05a0	-0.2715273
165	0x3fc97cb9	1.5741187
166	0x3f976181	1.1826631
167	0xc0668d4d	-3.6023743
168	0x3ecfc4df	0.40579888
169	0xc0431d46	-3.0486617
170	0xbe9201e9	-0.28517082
171	0x3fc35cbf	1.5262679
172	0xbf6dfa9f	-0.9296054
173	0x3f6be9dd	0.9215372
174	0x401ea11c	2.4785833
175	0xbec35249	-0.38148716
176	0xbdefe40f	-0.117134206
177	0xbef3be48	-0.4760611
178	0xbfa7f0f7	-1.3120412
179	0xbe4718f3	-0.19443111
180	0xbf77e024	-0.96826386
181	0xc006d511	-2.1067545
182	0xbf28f242	-0.65994656
183	0x405a466b	3.410548
184	0xc046bb7c	-3.1051931
185	0xbea1d4be	-0.31607622
186	0xbd602bdd	-0.05472933
187	0x3ffeee9e	1.991657
188	0xbf3aeb52	-0.7301532
189	0xbf9921e1	-1.1963464
190	0x3dd7b1f0	0.10531986
191	0x3f937177	1.1519002
192	0x40752627	3.8304536
193	0x40308c62	2.7585683
194	0x407c2aa8	3.9401035
195	0x3f3bd152	0.7336627
196	0x3f9c6f23	1.2221416
197	0x3f542456	0.82867944
198	0x3f1b4408	0.6065068
199	0x3fd8cced	1.6937538
200	0x3f0bdb7c	0.5463178
201	0x403f4b15	2.9889576
202	0x3f9c2cf4	1.2201219
203	0xbf1cd9ee	-0.61270034
204	0xbf807d43	-1.0038227
205	0xc0024641	-2.035538
206	0xbf1d46ce	-0.61436164
207	0xbf124b71	-0.57146364
208	0x3f8dd90e	1.1081865
209	0xbf234e45	-0.63791305
210	0x3f8d4c15	1.1038843
211	0xc0049de8	-2.0721378
212	0x3f12047b	0.57038087
213	0xbe8638aa	-0.26215106
214	0x3f2a9392	0.66631424
215	0xbec2e089	-0.38061932
216	0xbffe4577	-1.9864949
217	0xbdfb85cd	-0.1228138
218	0x3d91e98b	0.07124623
219	0x3f9f5f56	1.2450969
220	0x40476c35	3.1159794
221	0xbd4ee75d	-0.050513614
222	0xbfca8a69	-1.582349
223	0x3e250004	0.16113287
224	0x3d83cea7	0.064359
225	0xbf490c09	-0.7853399
226	0xc08b89a5	-4.3605523
227	0xbf139197	-0.5764403
228	0x3f415afd	0.7552946
229	0x40065c50	2.0993843
230	0x3f7a3f77	0.9775309
231	0x3b5c0beb	0.003357644
232	0xbf846b6a	-1.034528
233	0xbf59a5d0	-0.85018635
234	0x3e614685	0.21999557
235	0x3f4e8935	0.8067811
236	0xbdf59aa9	-0.1199239
237	0x3fef820a	1.871156
238	0xbfc337b1	-1.5251371
239	0xbec23f78	-0.37939048
240	0xbf8f8150	-1.1211338
241	0x3f9c1eb0	1.2196865
242	0x3f9f8a8b	1.2464155
243	0x3e6bb55a	0.23018399
244	0x3ea72ce4	0.32651436
245	0x3fa05a7d	1.2527615
246	0xbf985797	-1.190173
247	0xbf53d07f	-0.82740015
248	0x403ebe9c	2.9803839
249	0xbf68b637	-0.9090304
250	0xbffc8bb1	-1.973013
251	0xbeb78f43	-0.35851488
252	0x3e599ac2	0.21250442
253	0xbfdfee6a	-1.7494633
254	0x3bfc011b	0.0076905615
255	0x3f8e1cb0	1.1102505

body.1.body.0.bias f4 [144]
0	0xbf50b485	-0.8152545
1	0xbe794986	-0.24344453
2	0x3e87f61a	0.26554948
3	0xbf4bf87a	-0.7967602
4	0xbfb45416	-1.4088161
5	0x3ec063cf	0.37576148
6	0xbecea536	-0.4036042
7	0xbd989d07	-0.074518256
8	0xbf7f3ddd	-0.9970377
9	0x3d8943ea	0.06702407
10	0xbf5b2c6e	-0.8561467
11	0xbfc2b320	-1.5210915
12	0xbfb34d8d	-1.4008042
13	0xbf39f6ad	-0.7264202
14	0xbe687edd	-0.22704645
15	0x3cdb266a	0.026751716
16	0xbf0cc67c	-0.54990363
17	0xbf1aa6fe	-0.6041106
18	0xbed6b39c	-0.41933906
19	0xbf74ed35	-0.9567445
20	0xbe8d3966	-0.27582854
21	0xc01f3721	-2.4877398
22	0xbf916a1a	-1.1360505
23	0xbfaac019	-1.3339874
24	0xbef69abd	-0.4816493
25	0x3d038175	0.03210588
26	0xbf3835de	-0.71957195
27	0xc041b477	-3.0266397
28	0x3dbf8cf8	0.093530595
29	0x3f3c7057	0.73608917
30	0x3dd2ff87	0.10302644
31	0xbf647739	-0.8924442
32	0xbeef924e	-0.4679131
33	0xbf6f351a	-0.934404
34	0xbedd2e9d	-0.43199626
35	0xbf493ff1	-0.7861319
36	0xbfa5b6f5	-1.2946459
37	0xbf219ad8	-0.631269
38	0xbfa1b25f	-1.263256
39	0xbf055f56	-0.52098596
40	0xbf15b21a	-0.58474886
41	0xbf7fb035	-0.99878246
42	0xbf98aa54	-1.192698
43	0xbe9225c3	-0.28544435
44	0xbf65e485	-0.8980182
45	0xbf461da1	-0.7738896
46	0xbf80cd65	-1.0062681
47	0xbfd5dd8c	-1.6708236
48	0xbf5759f7	-0.8412165
49	0xbe91d9f9	-0.28486612
50	0x3e9596e5	0.29216686
51	0x3ed2c561	0.41166213
52	0x3db8e6a5	0.09028367
53	0xbf81ed32	-1.0150511
54	0xbf6b09b1	-0.9181166
55	0xbf48db24	-0.7845938
56	0x3ea6acdd	0.3255376
57	0xc0112720	-2.268013
58	0xc03ea03d	-2.9785302
59	0xbf0ca82b	-0.54944104
60	0xbf6166ae	-0.880473
61	0x3d8ffde0	0.07030845
62	0xbfa0faa2	-1.2576487
63	0xbf38c05a	-0.72168505
64	0xbe8591d5	-0.26087824
65	0x3e0c23c8	0.13685524
66	0xbe470c27	-0.1943823
67	0xbf1fbb05	-0.62394744
68	0xbfb90738	-1.4455328
69	0xbf2d5306	-0.6770481
70	0xbec69e77	-0.38792774
71	0xbf3bb946	-0.7332958
72	0xbeee1fef	-0.46508738
73	0xbef28028	-0.473634
74	0xbf3514f8	-0.7073512
75	0x3f1a6957	0.60316986
76	0xbf4ddbdf	-0.8041362
77	0xbeec9385	-0.46206298
78	0xbf079742	-0.52965176
79	0xbe1197ab	-0.14218013
80	0xbf19851d	-0.5996874
81	0xbdd14ef1	-0.10220135
82	0x3f4be117	0.79640335
83	0xc0265189	-2.5987265
84	0xbf6cc8bd	-0.924938
85	0xbe2b3018	-0.16717565
86	0xbf9429c2	-1.1575243
87	0xbfe518e2	-1.7898219
88	0xbf8725fc	-1.0558467
89	0xbf378e11	-0.7170115
90	0x3dda2690	0.106518865
91	0x3ecef7d0	0.4042344
92	0xc0150a8f	-2.3287694
93	0xc0297a97	-2.6481073
94	0xbd99c68a	-0.075085714
95	0xbf94c25f	-1.1621817
96	0xbeb77ed0	-0.35838938
97	0xbfb8eb9a	-1.44469
98	0xbdbd03e3	-0.09229257
99	0xbf6c390a	-0.92274535
100	0xbf0152f9	-0.5051723
101	0xbfeb9389	-1.8404399
102	0xbf07e45c	-0.53082824
103	0xbf1c65de	-0.61092937
104	0xbf1af949	-0.6053663
105	0xbf18f308	-0.59745836
106	0x3f179aa3	0.5922033
107	0xbec9529c	-0.39320838
108	0xbe5f2498	-0.21791303
109	0x3fb51c06	1.4149177
110	0xbf55298a	-0.8326651
111	0xbf14e690	-0.5816431
112	0xbf02a8da	-0.510389
113	0xbf101eb5	-0.56296855
114	0xbcb9531c	-0.022622637
115	0xbf037d14	-0.5136273
116	0xbf0e33e0	-0.55547905
117	0x3d340130	0.043946445
118	0xbf542dcf	-0.828824
119	0xbf9aa558	-1.2081709
120	0xbf6f31bc	-0.93435264
121	0xc0101282	-2.2511296
122	0x3f58b0f7	0.84645027
123	0xbf4cdaea	-0.80021536
124	0xc055de90	-3.3417091
125	0x3e3e9584	0.18611723
126	0xbf9aa45a	-1.2081406
127	0x3b9d2b6f	0.0047964375
128	0xbf211f09	-0.6293798
129	0xbf252ccc	-0.6452148
130	0xbeaa86e8	-0.3330605
131	0xbe854f0c	-0.2603687
132	0xbfbb6bce	-1.4642274
133	0xbf3ac352	-0.72954285
134	0x3e067578	0.13130748
135	0xbf00919a	-0.5022217
136	0x3df7b050	0.12094176
137	0x3f94ee8d	1.16353
138	0xbf83aced	-1.0287148
139	0x3edd9e47	0.4328482
140	0xbf035aeb	-0.51310605
141	0x3dea959f	0.11454319
142	0xbf2be8bc	-0.67152
143	0xbf91f510	-1.1402912

body.1.body.0.weight_g f4 [144, 1, 1, 1]
0	0x405af938	3.421461
1	0x4028cbe2	2.637444
2	0x40443514	3.0657396
3	0x4073f132	3.8115964
4	0x40654ffe	3.5830073
5	0x40258e01	2.5867922
6	0x404bf9d4	3.1871233
7	0x4043e4e8	3.0608463
8	0x4019dd27	2.404123
9	0x402e0d87	2.7195756
10	0x404d3e25	3.206918
11	0x4035e7fb	2.842284
12	0x401bbfb0	2.4335747
13	0x403a82ed	2.914241
14	0x403e46a7	2.9730623
15	0x4069cbce	3.6530643
16	0x404d1de2	3.204949
17	0x4014be61	2.3241198
18	0x4033d0ba	2.8096147
19	0x403d968c	2.9623137
20	0x4078fb0b	3.8903224
21	0x40270539	2.6096938
22	0x407d121b	3.95423
23	0x401e9d73	2.47836
24	0x4006212e	2.0957751
25	0x401f4391	2.488499
26	0x401bddc6	2.435411
27	0x4012265f	2.283592
28	0x4065b3c9	3.5890982
29	0x40272fca	2.6122918
30	0x4043b50b	3.057925
31	0x400aeba0	2.1706314
32	0x40417024	3.0224695
33	0x40450dca	3.0789666
34	0x404d62a6	3.209146
35	0x4020be43	2.5116127
36	0x3fe6b84d	1.8024994
37	0x402da473	2.7131622
38	0x3fc82d74	1.5638871
39	0x405e8f45	3.4774945
40	0x4028050a	2.6253076
41	0x4047af06	3.1200576
42	0x404640e1	3.09771
43	0x4039aa90	2.9010353
44	0x4062f719	3.5463316
45	0x40339133	2.8057373
46	0x400fae97	2.245031
47	0x4018f0c8	2.3896961
48	0x40555255	3.3331501
49	0x40244bf9	2.567137
50	0x4042c5b3	3.0433166
51	0x40486ca7	3.1316316
52	0x403060cb	2.7559078
53	0x404a9fab	3.1659954
54	0x40541c5d	3.3142312
55	0x404d596e	3.2085834
56	0x40913362	4.5375223
57	0x405172e9	3.2726386
58	0x40550600	3.3284912
59	0x401c1b6d	2.439174
60	0x40582071	3.37698
61	0x40297f87	2.6484087
62	0x401b7064	2.4287348
63	0x4031bb68	2.7770634
64	0x40741509	3.813784
65	0x4069887a	3.6489549
66	0x401a34a5	2.4094632
67	0x404c6eef	3.1942708
68	0x4030d5c3	2.763047
69	0x40385149	2.8799613
70	0x40295403	2.6457527
71	0x40529878	3.290556
72	0x4030fe3e	2.7655177
73	0x405da7fc	3.463378
74	0x40397bb3	2.898175
75	0x402f68f7	2.7407815
76	0x40232e62	2.549706
77	0x4029b2e3	2.6515434
78	0x407907da	3.8911042
79	0x404496a8	3.0716953
80	0x40563d1a	3.3474793
81	0x40158a12	2.3365521
82	0x40236c9a	2.5535035
83	0x400fab2a	2.244822
84	0x400da3f2	2.2131314
85	0x4088ee89	4.279118
86	0x40379a2f	2.8687856
87	0x405f3b28	3.4879856
88	0x403b9654	2.9310503
89	0x40642a5a	3.565085
90	0x406715f5	3.6107152
91	0x402008d2	2.5005383
92	0x406f9b85	3.7438672
93	0x4057cc98	3.3718624
94	0x405b0820	3.422371
95	0x4021dc5a	2.5290742
96	0x4065a54d	3.5882142
97	0x40585ebf	3.3807828
98	0x403a959f	2.9153821
99	0x402ffaf7	2.7496927
100	0x40522068	3.283228
101	0x4021d670	2.5287132
102	0x406e214c	3.7207823
103	0x404cd149	3.2002738
104	0x40491412	3.14185
105	0x406798b0	3.6186943
106	0x404116b4	3.0170107
107	0x4040e94a	3.0142388
108	0x40040755	2.0629475
109	0x401cb497	2.4485223
110	0x403092c6	2.7589583
111	0x4044b51d	3.0735543
112	0x408fa4b4	4.4888554
113	0x404eb708	3.2299213
114	0x405cfb0a	3.4528222
115	0x401608dd	2.344291
116	0x401a7a90	2.4137306
117	0x403fc186	2.9961867
118	0x405d113d	3.4541771
119	0x4052637a	3.2873216
120	0x404721ff	3.11145
121	0x40306ec3	2.7567604
122	0x4031bd99	2.7771971
123	0x406b5c2a	3.6775002
124	0x405f106b	3.485377
125	0x405e606d	3.4746354
126	0x403cc5af	2.9495656
127	0x40089e74	2.1346712
128	0x402e88ca	2.727099
129	0x4015c869	2.340357
130	0x403766e7	2.8656557
131	0x40437b02	3.0543828
132	0x404227d4	3.033681
133	0x4029498f	2.6451147
134	0x4057706c	3.3662367
135	0x404c1eaa	3.1893716
136	0x4001309a	2.0185914
137	0x4011f07c	2.280303
138	0x404e1b87	3.2204301
139	0x4039b520	2.90168
140	0x4058a538	3.3850842
141	0x40392a0f	2.893192
142	0x4040d41a	3.0129457
143	0x40371717	2.8607843
