models/pretrained_weights/wdsr_b_x2_16_24.pt (torch, 772431 bytes, 153 tensors)

head.bias f4 [24]
00000000: 8ed5 3c3c 1818 c53c c346 123d b295 a53a
00000010: ec01 a5bf 7185 0bbe 66e1 983d 1e1c 79bb
00000020: dea2 3d3e 0b6c 22bb af09 11be 93e5 3c3b
00000030: 1fdb a43b 3c89 843f 6bf8 52bd 6954 4abe
00000040: e150 f53d a711 1ebc e2a7 2ebd 42dd dc3e
00000050: f10e 003e eda3 563c b13e 9abd 48f5 ef3b
0.011525525 0.02405934 0.035712015 0.0012633114 -1.2891212 -0.13625123 0.07464866 -0.0038011144
0.1851916 -0.0024783637 -0.1416385 0.002882336 0.005031004 1.0354381 -0.05150644 -0.19758762
0.11978317 -0.009647763 -0.042640574 0.43137556 0.125057 0.013100606 -0.07531489 0.007322941

head.weight_g f4 [24, 1, 1, 1]
00000000: 2f92 d0bc bd1e 7b3f 5bb9 28bf 2639 3441
00000010: 3578 e03f 8201 c73f 955f e33f f096 b840
00000020: 1e46 c040 cb9b d53c 988e 5340 fef4 dcbf
00000030: 78d6 e440 a77f 9a40 b062 babf 90b4 a23f
00000040: e4cf 2640 08be e33f 36f4 ad40 2890 1240
00000050: 1e50 1940 0561 0fc0 752b b73f 1cc6 6c3e
-0.02546033 0.9809378 -0.6590783 11.263952 1.7536684 1.5547335 1.7763544 5.768425
6.008559 0.026075264 3.3055782 -1.7262266 7.1511803 4.8280826 -1.4561367 1.2711353
2.6064386 1.7792368 5.436061 2.2900486 2.395515 -2.2402966 1.4310137 0.23122448

head.weight_v f4 [24, 3, 3, 3]
00000000: ab2a 92bb 8ca2 60bf d10a 8abe 16b6 eb3d
00000010: 2042 313f b920 3b3f 19a1 303f 08c6 24bf
00000020: 5740 2fbf 38ad aa3e bebc c23f ddb9 093f
00000030: 2cc3 463f 30ce 2bc0 29df c13d 7c76 41c0
00000040: 6fe2 1140 d41c 2f3f 4259 efbe 7859 2bbf
00000050: 7850 3fbe 770c 55bf 3049 ff3f 4d6a 6ebf
00000060: 3663 2340 5f17 e9bf 0c76 2ebe 29c3 62bf
00000070: de6a d7bf 2170 5dbf 39bc 9e3c 4619 fcbf
00000080: f2d2 e9bf 7948 e2be 3816 03c0 618b 30bf
00000090: bb1a dc3f 5b45 c33f c629 1b40 8af7 1040
000000a0: 8c71 1140 b1b2 4a40 09b3 2340 8fa4 4040
000000b0: 4722 5940 6daf 42bd 1fde 04bf 902b 083f
000000c0: 7618 ffbe 8d15 50bf 74ea 26bc 349c 04bf
000000d0: 2724 23bf adf0 06bf 823b 0c40 4ab3 07c0
000000e0: 66f3 df3f 33bc 413d 3005 f53f a361 41bf
000000f0: b463 2d40 3880 363f b97a 02bf 63cd 743f
00000100: 847a a7be 0a8e 9f3f b7cf ad3e 08c6 bd3b
00000110: 7dc8 dc3e 93fa fc3f df81 bebd 762b a33e
00000120: 5c98 82bf 07f8 683f 35bf 3f3f e537 8fbf
00000130: 6d6e 97c0 9200 1a3f ff42 23c0 dea1 d6bf
00000140: 333e e2bf 56f9 68be f73f 283f 7e31 403e
00000150: 45ab 213f 6b7f aac0 4a62 803f 5b97 473e
00000160: ab3a 883f b6c1 f33e 1f1a e8bc 99c7 2cbf
00000170: d384 4dbe a516 35bf d7c7 b840 6df6 21bf
00000180: 398b 32be 7af9 20bf b5c5 abbe fed2 713e
00000190: 54cd 5e3e 8da0 7d3d bbcd 3b3e cf59 92bf
000001a0: 2858 8ebd 3ef9 1bbd eb19 a5bd 0f5c 6cbe
000001b0: 90f3 29c0 cba7 8abf b06f 97be 4998 34c0
000001c0: 235f 16c1 5f78 cfbd 3fe4 dfbf 4422 a2bf
000001d0: 697b 8ebf 9858 67bd f4b8 8e3d 727c 203d
000001e0: 8373 8ebe 7934 5d3f 4169 443f bcc1 53be
000001f0: d957 903e ec77 f7bd 1aad 4e3f 1ad2 a8be
00000200: 846f 82bf 048f b63e 9875 bb3f e5a7 90be
00000210: ea32 f7bd 9bdf 4d3d f951 17bf afc6 4340
00000220: 82c1 5d40 1ff1 a33f 88e3 493f a4c3 943d
00000230: 4795 34be 8d80 ea3e 02ad 05c0 3a7e 05bf
00000240: ff29 db3e 2ab4 3740 35f8 773f 79d3 ccbe
00000250: 60d1 64c0 21e6 173f 9735 bdbe 3adf 1ec0
00000260: 8c6d 3fbe 364c 0bc0 ea79 ba3f 8f29 7ebe
00000270: 84e2 edbe 198d 3c3d 1df8 d73f 931f babe
00000280: 36e0 873e 7094 833f 27b6 0e40 5654 0d3e
00000290: 7d09 abbd 87ac 173f 0589 94bf 148c 21c0
000002a0: e744 6f3e 22bf a3bf 35bb 01c0 b89f f5be
000002b0: b664 853f 845d debc 0719 723e 3e72 88c0
000002c0: 1c2a 96be 3f13 37be ab24 753f fffc 20be
000002d0: 00b8 f8bf 32e1 cc3f d036 28be 4826 983e
000002e0: b9d9 3c40 538c db3f b6a5 5bbf bb6f 0340
000002f0: ef21 b13e 1d40 0bbf bc8d ce3e c1a9 2ebe
00000300: f1ba b93e 8b11 6b3f 9460 573f e833 d83d
00000310: 0f26 973f 7a4d 173f 109f de3d dcf0 4bbf
00000320: 8c10 7f3e 41bc 8cbf f2d1 92c0 9229 8bbf
00000330: 283e de3d d175 58bf a368 023e bca1 923f
00000340: b83a 0cbf c761 0b3f 8677 21bf 78b9 ae40
00000350: 54cb a8bf 6479 023f 1e6e 94bf b058 abbd
00000360: 81b3 893e 1cbb 3f3e e6de 873e 85ec c33c
00000370: cc06 f5c0 7cba bebd 2a4c 983e 1f50 8bbe
00000380: 7b72 9d3e 42f5 d63e 321c 5e3f 7b5d f43e
00000390: 9108 e33e 4890 d0c0 3131 ac3e 2420 cf3e
000003a0: 6380 b43e dee0 e03e dc08 be3e f31c 5b3f
000003b0: 566a 953e af61 003f 14cd 69c0 21c6 7a3e
000003c0: 1a8f 743e 0669 ad3e 9edc 833e ea51 12bf
000003d0: 1b64 793c 7482 d6bd 1c8f 583e 7316 3f3f
000003e0: ffbb 10be 83f6 813f f273 13c0 4b74 a03f
000003f0: ff8e cdbb 28d0 993f 24d4 193e 4de8 a33f
-0.004460653 -0.87748027 -0.26961377 0.115093395 0.69241524 0.73096806 0.68995816 -0.6436467
-0.6845755 0.3333528 1.521385 0.5379923 0.7764156 -2.6844597 0.094663925 -3.0228567
2.2794454 0.68403363 -0.46747786 -0.66933393 -0.1868304 -0.83222145 1.994421 -0.9313095
2.5529304 -1.8210257 -0.17037219 -0.8857904 -1.6829488 -0.8649922 0.019376861 -1.9695213
-1.82675 -0.44195917 -2.0482311 -0.68962675 1.7195657 1.5255541 2.4244246 2.2651086
2.2725554 3.1671565 2.5578024 3.0100439 3.3927171 -0.04753058 -0.5190143 0.5319147
-0.4982335 -0.81282884 -0.010187734 -0.5180085 -0.6372704 -0.5271099 2.191132 -2.120318
1.7496154 0.04729862 1.9142208 -0.75539607 2.7092104 0.71289396 -0.5096851 0.95625895
-0.3271066 1.2465222 0.33947536 0.0057914294 0.4312171 1.9763969 -0.09302115 0.31869096
-1.0202746 0.9100346 0.74901134 -1.1188933 -4.7322297 0.6015712 -2.550964 -1.6768148
-1.7675232 -0.22751364 0.657226 0.1876888 0.6315196 -5.328054 1.0029995 0.19491331
1.0642904 0.47608727 -0.028332768 -0.6749206 -0.200702 -0.7073768 5.7743945 -0.6326664
-0.17435922 -0.6288067 -0.33549276 0.23615643 0.21758014 0.06192069 0.18340199 -1.1433657
-0.06950408 -0.038079493 -0.08061584 -0.23081993 -2.6554909 -1.0832456 -0.29577398 -2.8217947
-9.398227 -0.10130381 -1.749153 -1.2666707 -1.1131412 -0.056480974 0.06968871 0.03918118
-0.27822503 0.8640819 0.76723105 -0.20679373 0.28192022 -0.1208342 0.8073288 -0.32972795
-1.0190282 0.35655987 1.4645262 -0.28253093 -0.12070258 0.050262075 -0.59109455 3.0590017
3.4649358 1.2807959 0.7886281 0.07263878 -0.1763507 0.458012 -2.0886846 -0.5214573
0.42805478 2.8703713 0.9686311 -0.4000509 -3.5752792 0.59335524 -0.36954948 -2.4823747
-0.18694133 -2.1765265 1.4568455 -0.24820541 -0.4646188 0.046033 1.6872593 -0.36352214
0.26538247 1.0279675 2.2298677 0.13801703 -0.08351419 0.5924763 -1.1604315 -2.5241747
0.23366128 -1.2792704 -2.0270512 -0.47973418 1.042136 -0.027144201 0.2364236 -4.2639456
-0.29329002 -0.17878436 0.95759076 -0.1572151 -1.9431152 1.6006224 -0.1642716 0.29716706
2.9507887 1.7152199 -0.8579973 2.0536945 0.34596202 -0.54394704 0.4034251 -0.17056943
0.36275437 0.91823643 0.8413174 0.10556775 1.180849 0.59102595 0.108701825 -0.796644
0.24908656 -1.099495 -4.588128 -1.0872061 0.10851699 -0.84554774 0.12735228 1.1455607
-0.547771 0.5444607 -0.63073003 5.46014 -1.3187051 0.5096648 -1.1596105 -0.08366525
0.26894763 0.1872372 0.26537246 0.023916492 -7.6570797 -0.09312913 0.2974561 -0.27209565
0.30751404 0.41983992 0.8676177 0.4772757 0.44342473 -6.5176125 0.3363128 0.4045421
0.352542 0.4392156 0.37116134 0.8559105 0.2918269 0.50149053 -3.653142 0.24489643
0.23882714 0.3386919 0.25754255 -0.5715624 0.015221621 -0.10474101 0.21148342 0.7464363
-0.14134215 1.0153354 -2.3039517 1.253549 -0.00627315 1.2016649 0.15022331 1.2805268

body.0.body.0.bias f4 [144]
00000000: 199e 24c0 d2d5 8b3d 4739 8fbe 0a43 f7bf
00000010: c6cf e13d 739a 6bc0 17f6 b4bf d6ed 87bf
00000020: 55a9 13c0 b63f 79bf e27d dcbf afb8 fdbf
00000030: fb76 24bf 626f cfbe 7a25 87bf 06aa fbbf
00000040: 2642 93be 0e55 18c0 fe8b bd3e 0f34 d9bf
00000050: 478b 8abf 3015 28bf 2487 4f3e 9f9c bcbe
00000060: f7a7 85bf fbd8 70bf c4bc 83be 43d5 02c0
00000070: 229b 2dbf 5875 83c0 b5ce ae3e 42ae 74bf
00000080: 42d8 743e a89f be3d 6694 86bc 4214 55bf
00000090: 2b05 8e3e 8c9b acbd 3556 30bf 278d 28bf
000000a0: c799 d1bf bdc5 acbe dcc3 c9bd 3c78 92bf
000000b0: 6939 5f3e 81e7 b1be 5595 2cc0 385c 02c0
000000c0: 5e23 41bf 31ed cdbe e781 57bf c6f8 e7bf
000000d0: 2cf2 e9bf acd5 e03e 207d 5cc0 7a95 01c0
000000e0: 38d7 b7be 890e 5c3f 66f5 0abf 96d2 71be
000000f0: 965f 953e 9e97 1bbf f10b 12c0 d006 73be
00000100: b0d4 1cbe f263 10bd 3955 60bf b6e3 96c0
00000110: 0923 46c0 7163 e7be 6e74 1d3f 4ddb 1dc0
00000120: 80ab a5bf b72b 7fbe f45f 99c0 a756 72be
00000130: 4fce 843d 562f 34c0 05fe 51c0 3754 25bf
00000140: 6fcf dabe 711e f1be 0f8a f3bf 6c8e 91bd
00000150: 7ac9 87be 75ee 20bf bd07 96be f88c cebe
00000160: 4357 1dbf 7bf9 8ebf 8a7d 0bbf 4e20 213f
00000170: 477c 17c0 890e 22bf 5baf 49bf 7289 b2bf
00000180: e08d f6bf 6eff 15bf 3004 8bbf 029e c9bd
00000190: ff7d 40c0 9d72 42c0 8e2b fa3c 3d25 213b
000001a0: 9e77 34c0 7329 3bc0 bc77 a1c0 6b55 b2bf
000001b0: 5b09 e0be 31e8 ebbf 5f4b 16c0 f059 e1bf
000001c0: a11f 09bf dd48 9ebf 0089 49bf 42f3 01c0
000001d0: 475a 16c0 b41e a9bf 085e 70bf 6797 78bf
000001e0: 3414 94bf fb88 38bf 51ab 81bf d724 fdbd
000001f0: 534d 1bbf 739f 32c0 541b 623e 5678 04c0
00000200: 9b7a 22bf 6027 e6bf cf42 92bf 7ed0 1fbe
00000210: 82aa fcbf 0dc3 cc3d 3c42 53c0 45fc 13c0
00000220: c4eb 84bf 9f35 06bf 4890 fbbf aac3 c6bf
00000230: 4776 8fbe 292b ddbf eb6d 2fbe 151c 0fc0
-2.5721495 0.06827892 -0.27973387 -1.9317334 0.11025958 -3.6813018 -1.4137601 -1.0619457
-2.3072102 -0.9736284 -1.7225916 -1.9821986 -0.6424405 -0.40514666 -1.0558312 -1.9661262
-0.28761405 -2.3801913 0.37020868 -1.6969012 -1.0823754 -0.6565733 0.20266396 -0.36838242
-1.0441884 -0.94081086 -0.25729954 -2.0442665 -0.6781484 -4.108074 0.3414208 -0.95578396
0.23910621 0.09307796 -0.016428184 -0.83234036 0.27738318 -0.08428106 -0.6888154 -0.6584038
-1.6375054 -0.33744612 -0.0985181 -1.1442943 0.21799244 -0.34746936 -2.6966145 -2.0368786
-0.7544459 -0.40220025 -0.8418259 -1.8122795 -1.827703 0.4391302 -3.445137 -2.0247483
-0.35906386 0.8595968 -0.542807 -0.23615488 0.2917449 -0.60778224 -2.2819788 -0.23733068
-0.15315509 -0.035251565 -0.8763004 -4.7152967 -3.0958884 -0.45193055 0.6150578 -2.46651
-1.2942963 -0.2491902 -4.792963 -0.23665868 0.06484663 -2.8153892 -3.2811291 -0.64581627
-0.42736384 -0.47093537 -1.9026507 -0.07107243 -0.26520902 -0.62863857 -0.2930278 -0.40341926
-0.61461276 -1.1169885 -0.5448843 0.6293992 -2.3669603 -0.6330343 -0.78783196 -1.3948195
-1.9262047 -0.5859288 -1.0860653 -0.09844591 -3.0076902 -3.0382454 0.030538347 0.0024588846
-2.8198009 -2.9244049 -5.045866 -1.3932317 -0.43757138 -1.8430234 -2.3483503 -1.7605572
-0.53563887 -1.2365986 -0.7872467 -2.0304723 -2.34926 -1.3212495 -0.9389348 -0.9710602
-1.1568666 -0.72084016 -1.0130407 -0.12360542 -0.6066486 -2.790982 0.22080737 -2.0698447
-0.6346833 -1.7980766 -1.1426638 -0.15606877 -1.9739535 0.099981405 -3.3009176 -2.3122723
-1.038445 -0.5242557 -1.9653406 -1.5528462 -0.28019926 -1.7278796 -0.17131774 -2.236089

body.0.body.0.weight_g f4 [144, 1, 1, 1]
00000000: b9ed 2240 ada4 a83f e988 dc3f 4d97 fb3f
00000010: 5738 b63f 4f69 1a40 b2b2 ad3f caee fe3f
00000020: 8661 1740 325c c23f 1c30 fe3f 9693 1040
00000030: 32de d03f aedc f33f 70c4 0540 61fb 0240
00000040: 3c28 993f ce07 3040 4e99 6640 b4ea 0240
00000050: 77c2 ef3f beee 7b40 be94 ff3f 4cfd 7f3f
00000060: 51d0 c53f 24be ad3f 4a85 7640 40e9 1e40
00000070: a344 ab3f 0ca9 e53f d07c ff3f 7abe d13f
00000080: f107 4d40 fee5 7d3f d33b 5b40 eddf e83f
00000090: a00d 9940 2d8d f93f 21b5 aa3f eb02 2e40
000000a0: 8aec 1d40 e214 843f 8e06 a83f 8f51 843f
000000b0: c361 fc3f c35d 3c40 ef55 da3f 9723 ff3f
000000c0: 53de a63f f895 ec3f 426d 1a40 86e8 1d40
000000d0: a83c 1a40 882b 8a3f 246b fd3f bff7 a13f
000000e0: d7b2 933f 40ee ee3f 9d64 ea3f 4a28 8940
000000f0: 778f 3d40 60fc d03f 635b 1140 332d 5940
00000100: 1286 db3f 107e 1640 b5be ef3f 6cc5 1740
00000110: b58d dc3f a1cf 3940 71d2 913f 5fd5 d03f
00000120: 95fb ea3f f198 5440 783a f43f bc7b 963f
00000130: 3af8 f73f 19a2 7140 a71e 1d40 d148 aa3f
00000140: 1c58 ad3f 6927 1740 d64d 0940 42f2 983f
00000150: e456 ea3f 1113 a93f 5197 2b40 83c3 b63f
00000160: 2950 e43f 85c3 e13f ff75 b43f 1d78 ab3f
00000170: f7df e93f fae7 fe3f fc53 9f3f 10cb e53f
00000180: a80c f93f bf2c 0440 5960 f13f e946 8f40
00000190: fbed 1840 5a8f 0440 0ddc e33f 09e5 6940
000001a0: 0552 0640 e525 db3f 4326 0040 398f a63f
000001b0: c4c7 ac3f 8aa1 1440 210a 1040 9fbe cd3f
000001c0: dfb7 e23f b1c2 1040 a028 2740 b7b7 ca3f
000001d0: 89e4 f73f 0263 b33f 042d a73f 3da9 0240
000001e0: 6596 0840 9069 a43f a9d7 e93f 9ae0 f73f
000001f0: 3475 c33f 0abd e03f 8789 a93f 2cc4 0040
00000200: 0999 b33f 491e ca3f 2a53 d93f aa8f c23f
00000210: 8fb2 963f ae1c 0240 f56e e43f e11c e43f
00000220: fce7 d43f 3f87 e33f 6d2d 3540 c0a8 c03f
00000230: 2179 ad3f 978b c73f b9c0 4240 fcd9 3340
2.5457594 1.3175255 1.7229282 1.9655548 1.4235944 2.4126775 1.3570158 1.9916623
2.3653274 1.5184386 1.9858432 2.259008 1.6317809 1.9051721 2.0901146 2.046593
1.1965404 2.7504764 3.603107 2.0455751 1.8731221 3.9364467 1.9967268 0.99995875
1.5454198 1.3573651 3.8518853 2.4829865 1.3380321 1.7942214 1.9959965 1.6386254
3.2036097 0.99179065 3.4255264 1.8193337 4.782913 1.9496208 1.3336526 2.718928
2.4675622 1.0318873 1.3127 1.033739 1.9717335 2.9432228 1.7057475 1.9932736
1.3036598 1.8483267 2.4129186 2.467317 2.4099522 1.0794535 1.9798322 1.2653731
1.1538953 1.8666458 1.8311955 4.286168 2.9618814 1.6327019 2.2712028 3.3933837
1.715029 2.3514442 1.8730074 2.3714247 1.7230746 2.9032977 1.1392347 1.6315116
1.8358027 3.3218348 1.9080343 1.1756511 1.9372628 3.7755187 2.4549959 1.3303472
1.3542514 2.3617804 2.1453757 1.1948931 1.8307767 1.3208944 2.6811106 1.4278415
1.7836963 1.7637793 1.409851 1.3396031 1.8271474 1.9914544 1.2447505 1.7952595
1.9456987 2.065231 1.8857528 4.477406 2.3895252 2.0712495 1.7801529 3.6546042
2.098756 1.712094 2.0023353 1.3012458 1.3498464 2.3223596 2.2506182 1.6073798
1.7712363 2.261883 2.6118546 1.5837315 1.9366618 1.401459 1.3060613 2.0415795
2.1341794 1.2844715 1.8268939 1.9365418 1.5270143 1.755769 1.3245095 2.0119734
1.4031078 1.5790492 1.6978505 1.5200093 1.1773242 2.0330005 1.7846361 1.7821313
1.6633296 1.7775649 2.8308976 1.5051498 1.3552591 1.5589474 3.0430129 2.8101797

body.0.body.0.weight_v f4 [144, 24, 1, 1]
00000000: 79a5 0b3d 9469 863f 629f 183e 6e97 54bf
00000010: 825e a840 464b 7bbe 68a5 2c3f 19b3 c53e
00000020: b8d3 d73f b926 773c 78eb 123f a904 553f
00000030: 06b9 c43c 1661 15bf dd93 fa3f 0263 0a40
00000040: 6d80 cebe 6ead c43e 7dac 543f 1595 eb3d
00000050: 0e24 57be 4d8c cdbe cac8 88bf 8185 043d
00000060: e14c e0bd 1c90 853e 79e2 51bf b6db 00bf
00000070: 51ab f63e d3f6 95bf 68dd 8dbf 46c9 1e3f
00000080: 9392 06bf 3354 373f 7fd6 78bf a20a d43f
00000090: 75b4 263e e112 3340 2358 3fc0 d0f5 213e
000000a0: 1b64 d0bf 67a4 28c0 bb89 d5bf 9b53 46c0
000000b0: fd68 833f 15c3 81bd dbd3 d13d ffc8 4cbf
000000c0: 0058 0b3f 494b 37c0 5e50 dcbf 3e25 6fbf
000000d0: d38c 94bf c5b0 9b3e 32eb 88bf a354 efbf
000000e0: 0705 4dbf 39be 193f 7359 ba3f 2d82 1bc0
000000f0: 476d b2c0 76a5 41c0 eb32 48bf aceb 63bf
00000100: bbd5 efbe 7662 253f 375e 29bb f208 cabf
00000110: dc16 d7be 2b85 213f e95b 0840 345a 69be
00000120: d961 04bd 8473 53be 6262 213e 988b 9f3d
00000130: 135c c23f d521 933f 0d73 d5be bd45 12bf
00000140: 5111 3fbd 9cc0 59bb daf0 e83f 841d f5bd
00000150: 4234 d33f 7536 abbf ca2c 8ebf 39a7 22be
00000160: 764c c5bf 0f17 d8bf d533 83bf d700 95bf
00000170: 0f09 f33e 2194 163f c768 72bf dcf1 25bd
00000180: 79e0 c6ba 195d 0c3d b501 d83d 66b9 003f
00000190: f010 8b3f aabf 32c0 0cb3 d8be 9edd 2fbe
000001a0: 3809 ce3d bff2 d8bf 3f01 31c0 4b00 583e
000001b0: 0ab2 28c0 1a88 bbbf eacb 91c0 fc85 45bf
000001c0: 727f c03f 075e 05bf c142 843e a12b d0be
000001d0: fca8 6b40 0783 86bf 3de6 87be 1f82 083f
000001e0: def2 e93c 5dd0 8cbf 78fb 22bf 0eeb 283e
000001f0: 5530 1f40 67c2 e1be e0b7 15bf ec52 73bf
00000200: 60b4 9e3f 581b c5ba f625 0c40 066f 88bf
00000210: 6b85 95bf 771a a0c0 a953 adbf 951e 1e40
00000220: 61b3 96bf 7718 dabc 0157 5d3f fd92 e1bf
00000230: 1cc6 b4bf e0eb ab3e 004f b5bb e239 ed3d
00000240: 5afa 1f3a ef2c 67be dfe4 acbf eede dabe
00000250: 648b bb3e d049 62bc 324a 27be 23bd 313f
00000260: 58a2 39bf 08af 0cba 67c7 273f 9fa1 21be
00000270: 6a78 2a3f 36a8 59be ae1d 313f 04d0 24bc
00000280: 5c1e 62bc 5efa 023f 97ed 0a3e 355e fcbf
00000290: bb2a f73d 5f14 ddbf f89d 603e c19d 32bf
000002a0: 96cf 06be 6f54 9a3f 18b1 d7bf 305f bec0
000002b0: a9d6 6e3f 825d 873f 6b71 17bf 4b41 4c40
000002c0: b7e9 db3e da0d 84b9 35c3 68bc b6ee 0840
000002d0: 1c48 c03f 1ef5 2c3d f3df 933c 3d6b b0bf
000002e0: c5df 023f 64b8 d8be 20f2 55c0 886f a6be
000002f0: 8879 25bf 7e92 39bf dd16 e2bf 9f00 d03e
00000300: 6249 c7bd 5141 3dc0 b07d 1fbe f862 c8bf
00000310: 4106 1f40 7b6f 45bf 455e 01bf 6634 8140
00000320: 31c9 06bf d97c 2c3e 0198 f8bf 1562 74bf
00000330: f4a9 383e f96e 583e cc5f 9ebe 9928 1940
00000340: 22e0 edbf 5fc8 1b40 a131 87be 4c4b eabf
00000350: 379a 3ec0 7785 2fbf a810 403e 070e 3c3d
00000360: 0e6a ac3d 7668 da3e 1c39 97bf dcab 9dbf
00000370: 2d96 523f f0c4 da3e 62c7 8bc0 490e 1ac0
00000380: 4a1c e8bf de72 803e ed8e 0540 d8eb 6b3e
00000390: 54d1 99bf 8cd6 12c0 57a0 b3bf b05b 70bf
000003a0: 6c1e 823c 3a35 9d3f ced3 1dbe a32d 5ac0
000003b0: d027 95bf 0551 0f3e 9f9f 3840 0058 52bd
000003c0: c765 083e bc2c 9e40 6dff 933f c182 09c0
000003d0: e585 8a3f 362d 0440 2f4c d23f f8bf 5d3e
000003e0: 62fb 453d 072a 453d c4fa 19be 151a 2940
000003f0: 63b5 3040 5d86 84be 1d0a 7440 23ea e9bf
0.034093354 1.050097 0.1490455 -0.83043563 5.2615366 -0.24540433 0.6743989 0.38613203
1.6861486 0.015084916 0.57390547 0.83210236 0.024014007 -0.58351266 1.9576374 2.162293
-0.40332356 0.38413566 0.83075696 0.115030445 -0.21009848 -0.40146104 -1.0686276 0.03235388
-0.109521635 0.2608651 -0.81986195 -0.5033525 0.4817758 -1.171595 -1.1083193 0.6202587
-0.52567405 0.7161285 -0.97202295 1.6565745 0.16279776 2.7980273 -2.9897544 0.15816426
-1.628055 -2.6350343 -1.6682657 -3.0988529 1.0266415 -0.06336037 0.10245486 -0.79994196
0.5443115 -2.86397 -1.7212026 -0.934162 -1.1605476 0.30408302 -1.0696776 -1.8697704
-0.80085796 0.6005588 1.4558548 -2.4298203 -5.5758395 -3.025724 -0.78202695 -0.8903148
-0.4684275 0.64603364 -0.002584351 -1.578398 -0.42009628 0.63093823 2.1306098 -0.22788316
-0.032319877 -0.20649534 0.15760186 0.07790297 1.5184349 1.14947 -0.4168934 -0.5713766
-0.046647374 -0.0033226376 1.8198502 -0.1196852 1.6500323 -1.3375994 -1.1107419 -0.15884103
-1.5413959 -1.6882037 -1.0250193 -1.1640881 0.4746785 0.58819777 -0.9469113 -0.04051386
-0.0015173099 0.034268472 0.105472006 0.50282896 1.0864544 -2.7929482 -0.42324102 -0.17174384
0.10060352 -1.694908 -2.765701 0.21093862 -2.6358666 -1.465091 -4.556142 -0.7715757
1.5038893 -0.520966 0.2583218 -0.40658286 3.682189 -1.0508736 -0.26542845 0.5332355
0.02855819 -1.1001087 -0.6366496 0.16495916 2.487325 -0.4409363 -0.58483696 -0.95048404
1.2398796 -0.0015038056 2.189817 -1.0658882 -1.1681341 -5.0032306 -1.3541156 2.4706166
-1.1773492 -0.026622994 0.8646088 -1.7622982 -1.4122958 0.33578396 -0.005533099 0.11583306
0.0006102674 -0.22575735 -1.3507346 -0.42748207 0.36629784 -0.013811544 -0.16336897 0.69429225
-0.7251334 -0.0005366658 0.6553864 -0.1578431 0.6658999 -0.21255574 0.6918591 -0.01005936
-0.013801184 0.5116328 0.13567196 -1.971625 0.12068697 -1.7271842 0.2193526 -0.69771963
-0.13165125 1.2057017 -1.685092 -5.9491196 0.93296295 1.0575411 -0.5915744 3.1914852
0.42951748 -0.00025187322 -0.014206697 2.1395698 1.5022006 0.04222595 0.018051123 -1.3782727
0.51122695 -0.4232818 -3.3429031 -0.32506967 -0.64638567 -0.72489154 -1.7663227 0.40625474
-0.097307935 -2.9571116 -0.1557529 -1.5655203 2.4847567 -0.7712323 -0.5053447 4.0376463
-0.52650744 0.168445 -1.9421388 -0.9546216 0.18033582 0.21136083 -0.30932462 2.393103
-1.8584025 2.4341047 -0.2640505 -1.8304229 -2.9781625 -0.68563026 0.18756354 0.045911815
0.08418666 0.42657822 -1.1814303 -1.2318072 0.822604 0.42728376 -4.3680887 -2.407122
-1.8133633 0.25087637 2.0868485 0.23039186 -1.2017007 -2.294345 -1.4033307 -0.93889904
0.015883647 1.2281868 -0.15412828 -3.4090354 -1.1652775 0.1399575 2.8847425 -0.051353455
0.13320075 4.9429607 1.1562325 -2.1486056 1.0822111 2.0652595 1.6429499 0.21655262
0.04833544 0.048135784 -0.15037066 2.642217 2.761071 -0.2588376 3.8131173 -1.8274578

body.0.body.2.bias f4 [20]
00000000: f65d 39be 10b1 d1bc 12dc 50be 9061 833e
00000010: f745 d4bd 63ad dabd 19cb 5ebe cbdd 2f3e
00000020: 5796 ed3c a47e 5bbf ef29 abbe b2c2 8abd
00000030: d37c 7e3e 0890 89be 8fc5 44be af59 5b3d
00000040: 786d 8e3d c817 66be 2f87 24be 3c4a 8d3e
-0.1810225 -0.025597125 -0.2039645 0.25660372 -0.10364907 -0.10677602 -0.21757163 0.17174451
0.029002352 -0.85740113 -0.3343043 -0.067754164 0.24852304 -0.268677 -0.19215988 0.053552326
0.06954473 -0.2247001 -0.16067193 0.275957

body.0.body.2.weight_g f4 [20, 1, 1, 1]
00000000: 56cf 963f 5e7a 3a40 db42 c93f 8416 a33f
00000010: e91e aa3f 61ea 3740 b938 aa3f 5a44 c63f
00000020: 4694 2240 728a 5a40 9d54 be3f f3b0 eb3f
00000030: 0a06 a93f 469e f23f ff52 c93f 6fd6 b43f
00000040: 4aee a83f bb23 cd3f ac2f a83f 9198 fa3f
1.1782024 2.9137187 1.5723528 1.2741246 1.3290683 2.8736804 1.329856 1.5489609
2.5403 3.4147 1.4869572 1.8413376 1.3204968 1.8954551 1.5728453 1.412794
1.319772 1.6026529 1.3139548 1.957781

body.0.body.2.weight_v f4 [20, 144, 1, 1]
00000000: 177a 0e40 b4cf 4040 69f6 89bf b575 183e
00000010: e89b 483f cc7a 8540 9daf a7be 45c1 a83e
00000020: b579 21c0 ec1e 69bf 89d0 c9bd 4391 2c40
00000030: e8b4 a73d 617f 8cbf dbd9 3340 bdd2 de3f
00000040: 2ac4 96be d4f7 f23f 1125 753f 6760 81bf
00000050: 3525 2a3f c0e6 21bf ad52 873d f4d4 ca3e
00000060: fb8f e33f 3c2a 863f 629e ab3e 77e5 b7bf
00000070: 12de 86b7 2312 6740 3ada d2be 1cf2 b1be
00000080: ae45 a53f b76f 75bf f94b 08c0 3f69 7b3f
00000090: d584 b83f f85c 54bf f220 a43e 68a1 4f3f
000000a0: c3f5 8d3f 42cf e33f ad0c a7bf bf62 d9b8
000000b0: a06b eb3e e3ad 1040 90f3 b3bf ff6d d53f
000000c0: 9225 15bf 0a38 213e 8088 11bf 983e 273f
000000d0: ae55 f1bf bcaf 7fbc 624c 3440 6643 66bf
000000e0: 3f45 ca3f 2c87 0340 caf8 7abd 3b34 11c0
000000f0: f560 e93f cdb3 63bf 6cff 5240 f39b 10c0
00000100: 39f4 83be bc9a 60bf 7afa 6440 2926 7cc0
00000110: 6612 043f 2c8f 17be 3d12 14bd cde8 50bf
00000120: 3399 0840 4b72 3540 bfa6 54c0 9a6d 13bf
00000130: 6445 323f bd19 f2bf 35e7 1bc0 3a39 5eb6
00000140: 0f53 63bf f528 2cbf ca39 f63f b37e 9bbe
00000150: 30b8 ac3f 0aef f43e 28da 11c0 efae 803f
00000160: 359f a5bf 40eb a13f e49a 6d3f 86a1 b5bf
00000170: b097 c53f 107d ecbf 9d4f 2e3f 1166 63bf
00000180: 1a07 b23e aadb ccbf 9238 0b3f 8914 d8bf
00000190: ec57 12c0 5551 30c0 93f3 adbf b897 9b3f
000001a0: 83dd 8240 be53 cabf 4683 74c0 8a55 193e
000001b0: a9b9 31bf 1e1c adbf 723b 3240 c1bf 833e
000001c0: 26d6 143f e191 e93e b27a 653f 89a5 0540
000001d0: 0dd2 27bf 9610 d0bf ae0c 93be 9a93 3d40
000001e0: bc4e aabf e94c 863f 2b98 17c0 00a5 a63c
000001f0: 50c6 003f 8db7 ab3f eb36 aebf 1112 78c0
00000200: b291 4b3f abe2 e3bf e0e3 e93f 9818 7abf
00000210: 21cb e03d 3846 1c40 48ea 933e 0904 fdbf
00000220: f7f2 4d3c 449c 3cc0 8874 4d40 02dc 4e3f
00000230: a845 08bf b456 743f 0b69 fa3e 8973 f5bf
00000240: 7e2a 0940 7be6 1a3e 27c9 ab3f 1277 3e3e
00000250: 885d 97bf f224 c0c0 bbdc 683f a615 a7bf
00000260: 954b 3cbf 5ae7 f73e fe9e aebe ced2 c2bf
00000270: 42eb 27bf 5a07 3e3f 6e62 8fbf ce61 693f
00000280: 57ed ddbe 9b66 473f 08fe f43f 7043 ed3b
00000290: 8f4b 80bf d59d 2cbe f15a 19bf cf6d 333e
000002a0: 1e7b a03f cab9 e23c 3863 1f3e ee0a 733f
000002b0: ed5f 5237 d8be 0941 da4b b4bf 98c9 893e
000002c0: fd5d ffbf 4201 463f 0e07 03c0 5c99 973f
000002d0: 9bcf c43f b63a 3fbf d0ba e03d 8418 02c0
000002e0: a35b 983f 77db 873f 5732 7dbf ebae edb6
000002f0: a6ad c43d ab5a 5b3f 3887 3440 46a0 27c0
00000300: d482 d1b6 5be9 f13e 0380 593f 133c 70bf
00000310: 0820 4bbf b351 723f a10e b53f 9bcf 873e
00000320: b46d 8e3e b98d 8e3f ca90 a13e e4fe c03f
00000330: 1a4d 02bf ba7e 02bf 39c2 e3bf 017d 5d3f
00000340: 87e8 20be 1644 b83f 2109 8abf 4d69 0541
00000350: 1f44 62c0 dfa2 edbf 955e 3ac0 a7d9 04be
00000360: d738 293f 655c 7d40 b50e 2941 0c77 b8bf
00000370: aa6f 2fbf 2d56 0d3f 130c 38c0 75ce cab9
00000380: bc37 bdbe ea23 aebf d2a6 9ebf e543 bcbd
00000390: 13e7 50bf 662f 833f 71ec a4bf 7126 33b7
000003a0: 4d8a 653f 5d88 adbf b43b 9eb9 e376 97bf
000003b0: 4bef ad3f 47a1 c13e b66c bd3d 6a94 92bf
000003c0: 074e 8fbf 23d1 dc3e c666 5f3e 4b82 113e
000003d0: 6aaa c7bf 004d 8440 86dd 603e 6e1d b53e
000003e0: 297c a9c0 496e 26bf 5b2f a640 7dcd 983f
000003f0: 7780 1f40 d212 aabf 20f8 a7bf 3dca 05bf
2.2262018 3.0126772 -1.0778323 0.14888652 0.78362894 4.17124 -0.3275117 0.32959953
-2.5230534 -0.9106281 -0.09854228 2.696366 0.08188802 -1.0976373 2.8101718 1.7408062
-0.29446536 1.8981881 0.95759684 -1.0107545 0.66463023 -0.6324272 0.06607566 0.39615595
1.7778314 1.0481639 0.33519274 -1.4366902 -1.6077454e-05 3.610482 -0.4118212 -0.34755027
1.291189 -0.9587359 -2.129637 0.9820747 1.4415537 -0.8295436 0.32056385 0.8110566
1.1090626 1.7797625 -1.3050743 -0.00010365759 0.4598055 2.2606132 -1.4058704 1.6674193
-0.5826045 0.15744033 -0.5684891 0.65329885 -1.8854272 -0.015605863 2.817162 -0.8994659
1.5802382 2.0551252 -0.06127242 -2.268813 1.8232714 -0.8894623 3.2968397 -2.2595184
-0.25772265 -0.87736106 3.5777879 -3.939829 0.51590574 -0.1480071 -0.036150206 -0.81605226
2.1343505 2.835101 -3.3226774 -0.57589114 0.6963713 -1.8914105 -2.4359868 -3.3113888e-06
-0.8879861 -0.67249995 1.9236386 -0.303701 1.349371 0.47838622 -2.2789402 1.0053385
-1.2939211 1.2649918 0.9281447 -1.4189918 1.5436916 -1.8475666 0.6809023 -0.88827616
0.34771043 -1.6004536 0.54383194 -1.6881267 -2.2866163 -2.754964 -1.3589958 1.2155676
4.08954 -1.5806806 -3.8205123 0.14974037 -0.6942392 -1.3524206 2.7848783 0.25732234
0.58139265 0.4561911 0.89640343 2.0882285 -0.6555489 -1.6255062 -0.2872061 2.962134
-1.3305278 1.0492221 -2.3686626 0.02034235 0.503026 1.341539 -1.361051 -3.8761027
0.7951919 -1.7803549 1.8272667 -0.9769378 0.10976244 2.4417858 0.2888968 -1.9766856
0.012570134 -2.9470377 3.2102375 0.80804455 -0.53231287 0.954448 0.48908266 -1.9175884
2.1432185 0.15126984 1.3420762 0.18600109 -1.1825418 -6.00451 0.9096181 -1.3053482
-0.7355283 0.48418695 -0.34105676 -1.5220582 -0.6559335 0.7422997 -1.1201913 0.91164863
-0.43345138 0.7789094 1.9140024 0.007240705 -1.0023059 -0.16857083 -0.5990439 0.17522357
1.2537572 0.027676482 0.15565193 0.9493855 1.253931e-05 8.609093 -1.4085648 0.26911616
-1.9950558 0.7734567 -2.0473056 1.1843677 1.5375856 -0.7469896 0.10973132 -2.0327463
1.1902965 1.061385 -0.9890494 -7.0835135e-06 0.09603433 0.85685223 2.820753 -2.6191573
-6.243916e-06 0.4724835 0.84960955 -0.93841666 -0.7934575 0.94655913 1.4145089 0.26525578
0.27818072 1.1137 0.31555778 1.5077786 -0.508989 -0.5097462 -1.7793647 0.86518866
-0.15713702 1.4395778 -1.0784036 8.338208 -3.5354078 -1.8565329 -2.9120228 -0.12973653
0.66102356 3.9587643 10.566091 -1.441133 -0.6852976 0.5520962 -2.875737 -0.00038682265
-0.36956584 -1.360471 -1.239466 -0.09192637 -0.8160259 1.024884 -1.2884656 -1.0678182e-05
0.89664155 -1.355724 -0.0003018059 -1.1833156 1.3588651 0.37818357 0.092492506 -1.1451542
-1.1195687 0.4312831 0.21816549 0.14209859 -1.5598881 4.1343994 0.21959504 0.35374016
-5.2964063 -0.6501203 5.1932807 1.193771 2.4922159 -1.3286994 -1.3122597 -0.52261716

body.0.body.3.bias f4 [24]
00000000: dfe5 8bbc fe6f c5bd a318 603d 5cc7 9d3d
00000010: a676 783f a655 f43d b67b a7bd b579 cb3c
00000020: ee55 363e 2e1a 26be 1ccc 4abd c5ff 713d
00000030: 92b4 18be 4938 04bf ddb4 503e b1d9 833e
00000040: e2f0 bbbd e59d 853c 0e23 e6bb 5ab8 6dbe
00000050: 2dac e23d b11d d63c 409e ab3e 60e2 893b
-0.017077385 -0.096405014 0.054710995 0.077040404 0.97056043 0.11930399 -0.08177893 0.024838308
0.17806217 -0.16220924 -0.04951106 0.05908181 -0.14912632 -0.51648384 0.20381494 0.25752023
-0.09176804 0.016310642 -0.007023222 -0.23214856 0.11067996 0.026137205 0.33519173 0.004207894

body.0.body.3.weight_g f4 [24, 1, 1, 1]
00000000: f0ee 0e3f 2b07 4dbf 4a67 05bf 1511 29bf
00000010: 7a51 71bf 3670 1a3f d89c 25bf 3800 853f
00000020: 8e7c c1be 883a 18bf c960 323f cfc1 17bf
00000030: 9e0f 38bf 84e4 36bf 885d 0ebf 1f76 863f
00000040: 7c6b 27bf ecd6 343f b9dd 423f a306 103f
00000050: f624 143f 2c3f 0e3f 1ca1 0e3f d798 2d3f
0.5583334 -0.8008906 -0.5211073 -0.6604169 -0.9426495 0.6032747 -0.6469245 1.0390692
-0.3779034 -0.5946431 0.6967893 -0.59280103 -0.7189883 -0.7144244 -0.5561147 1.0504798
-0.65398383 0.70640445 0.7611957 0.56260127 0.578689 0.5556514 0.55714583 0.6781134

body.0.body.3.weight_v f4 [24, 20, 3, 3]
00000000: 4380 e73f eb47 063e 59f7 9e3f e45f 06c0
00000010: a376 a33f e4a3 c1bf 53a8 843f 90d3 80bf
00000020: 280d 9cbd 43b3 9a3e b979 1b3e a7eb f9bf
00000030: 6f3b b93f baed 8440 e471 15c0 b5ee 8bbe
00000040: f98b 06c0 4666 e6bf 4900 523f 5268 a3bf
00000050: ac3f ee3e 5c6e acbe 8508 613f 9153 0dc0
00000060: 1fe8 22bf 41c3 59c0 06e3 60bf 1346 3dbe
00000070: 7388 1bc0 ef01 36bf 8abd 86be dee6 98bf
00000080: d7bf 4ac0 4d13 0dbf 43ba 19bf 8567 bebf
00000090: 544a c23f 4967 88bf 65cd 8c3e 79ba c5bd
000000a0: 5b1f 0d40 2d89 883d 0735 833d ce22 4240
000000b0: 163e b63e 5069 2abf 32aa 9f3f b9fd c23f
000000c0: ee2c d4bf 598d c140 4793 6ebd 83ab eabf
000000d0: 4287 14bf ff1f 25bf 01f4 d53d 9aee 66be
000000e0: d4cc 89be 8e51 27be c0a1 7e40 1741 d33f
000000f0: cedf afbf a0c8 153f aa92 f8bd 6acd c93e
00000100: c030 68bf 1170 a73e 4710 023e 23ac 4440
00000110: 3c8a 1bbf fd6f 9d3e 3422 d7bf 7e55 67bf
00000120: 62f3 a13f 1ecf 2040 f77e 803f d84a 873f
00000130: 35a2 c43f 2bc9 403f 87cb 833f 8a40 8cbf
00000140: ee40 a4bf fa02 90bf dc8d 3ec0 5dc8 e0bf
00000150: 11a0 33c0 c6e5 8d3f e742 cf3f 2515 c03c
00000160: abb1 5040 898e 153e 1915 2ac0 c5f4 38c0
00000170: 10cd a3bf 896b b6c0 97df bcbe aa46 0ec0
00000180: b54a acc0 3952 7cc0 ad63 5dc0 d9d1 03bf
00000190: 309c c4be 4357 31bf dd79 5d3f fe10 d9bf
000001a0: f700 1640 9bc4 dbbf 97e5 0a40 7308 56c0
000001b0: 2fb3 c2be 4b5c 35bf 1e30 3abf c47a 8fbe
000001c0: 3b48 3ebe 0dcf 07c0 568f 843f d1f7 a73d
000001d0: 8248 523f 72a0 adbf e26d 7fbf 70a6 bbbf
000001e0: c66a 783f 46a1 57c0 2c83 06bf 281b d23e
000001f0: df8e c4bd 4d9b 23be 2e71 b5be 40e5 c73f
00000200: bdb9 b6bf 531c cb3f a6ea 5fc0 96b5 4dbf
00000210: 48fa e1bf b690 4e3f effe 1fc0 7c48 803f
00000220: 434f 833d 5df5 60bf 4c71 8f3f 62e0 8c3e
00000230: 817b bb3f f026 b9be 8f1c 2240 df09 fe3e
00000240: 2870 7bbf 3923 8f3e b371 14bf 8926 863f
00000250: 972a 6940 be91 8abf 49f2 5f3f 0620 253f
00000260: 94e7 09bf 89b2 4e3f f327 12c0 50ed 6e3e
00000270: af39 6cbf f168 833f 27b7 44be 8b9d da3f
00000280: 523a 0340 3e8b 743f be3a 1c3f 5b6c 82bf
00000290: c98b 1b3d 7651 0fc0 e311 9e40 3d3f 2b40
000002a0: 904f 90bf 737e b03e bfdf 83bf 018e 3b3f
000002b0: c397 2a40 ff8d 3f3f 41f0 773f 5894 06bf
000002c0: e40b 6bbf 348f 703f bcdb 16c0 4bae 03c0
000002d0: 833b ba3f 8157 33bf 2f00 8abe e1cc de3f
000002e0: 4016 8ebe 3ba1 10be 7db2 f53f b71b 8bbf
000002f0: 4a09 ab3f 56c3 a83f d159 fc3f 1992 e4be
00000300: efcc c440 71dc 61c0 bc15 90c0 4f85 453f
00000310: b471 4d3e ea94 d2bf a621 903d 8c2d 8c3f
00000320: 6c61 9abf 43e0 4140 08fe 49bf 6a45 12c0
00000330: 3ea4 dabe a88a 08bf d737 613f 1f36 aa3f
00000340: 09c7 8f3f 1380 2fbe b378 45be def6 fbbf
00000350: b4cc 43bf 394c 8fbe 5988 92bf 1f0e 443f
00000360: ecfe aebf 0848 5bbe ac5f 06be c257 23bd
00000370: a4e5 3540 ba80 63bf 0392 c0be 0df7 ce3e
00000380: 4d2d 21bd acc6 733f 7166 1240 eeff 463d
00000390: bbc7 8d3f cd73 acc0 823e 2940 0a2b ea3e
000003a0: 2815 e8bf bc9b e83a 8aba e1bf a311 08bf
000003b0: a402 73bf 2dde 3fc0 5d22 273f abaf 233f
000003c0: ec95 00bf 138b 0b40 50cd 793f a970 43bf
000003d0: b705 a6be ae98 44bf d64b a23f 1a52 bfc0
000003e0: d150 3d3f 7a2a 4fbd d906 c53e e553 41bf
000003f0: e4db 353e 5efe 603f bd9b 8bbf 6988 0a40
1.8086017 0.13113372 1.2419235 -2.0996027 1.277058 -1.512814 1.0363868 -1.0064564
-0.07619697 0.3021489 0.15183152 -1.952504 1.4471263 4.1540194 -2.3350763 -0.27330557
-2.1022933 -1.7999961 0.82031685 -1.2766211 0.46532953 -0.33677948 0.87903625 -2.2082255
-0.6363544 -3.4025424 -0.8784641 -0.18483762 -2.4302032 -0.710967 -0.26316482 -1.1945455
-3.167959 -0.55107576 -0.6004984 -1.4875342 1.5178933 -1.065652 0.27500454 -0.096547075
2.2050388 0.06666789 0.064065985 3.0333743 0.35594243 -0.66566944 1.2473814 1.523368
-1.6576211 6.0485044 -0.058245923 -1.8333591 -0.5801889 -0.6450195 0.10446931 -0.22551957
-0.26914084 -0.16339704 3.9786224 1.6504239 -1.3740175 0.58509254 -0.12137349 0.3941453
-0.90699387 0.32702687 0.12701522 3.0730064 -0.60757804 0.30749503 -1.6807313 -0.90364826
1.26524 2.5126414 1.0038747 1.0569715 1.5362002 0.7530696 1.0296487 -1.0957196
-1.2832315 -1.1250908 -2.9774084 -1.7561146 -2.8066447 1.1085746 1.6192292 0.023447582
3.260844 0.14605154 -2.6575377 -2.8899395 -1.2796955 -5.700627 -0.36889336 -2.223063
-5.3841195 -3.9425185 -3.4592087 -0.5149208 -0.38400412 -0.69273776 0.86514074 -1.6958311
2.343809 -1.7169374 2.170263 -3.3442657 -0.3802733 -0.7084395 -0.7272967 -0.2802335
-0.18582241 -2.1220124 1.0356243 0.08201564 0.8214189 -1.3564589 -0.9977704 -1.4660168
0.97037923 -3.3692183 -0.525439 0.41036344 -0.09597563 -0.15977211 -0.35437912 1.5616837
-1.4275433 1.5868019 -3.4986968 -0.80355203 -1.7654505 0.8068956 -2.499935 1.002212
0.06411602 -0.87874395 1.120645 0.2751494 1.4647065 -0.3616252 2.532993 0.49616906
-0.9821801 0.2795656 -0.5798599 1.048051 3.6432245 -1.0825727 0.8747907 0.6450199
-0.53868985 0.80741173 -2.2836883 0.23332715 -0.9227552 1.02664 -0.19210492 1.7079328
2.0504346 0.95524967 0.61027133 -1.0189317 0.037975106 -2.239347 4.9396834 2.6757348
-1.127428 0.34471473 -1.0302657 0.73263556 2.6655128 0.74826044 0.96850973 -0.52570105
-0.9181502 0.9396851 -2.3571615 -2.057513 1.4549412 -0.70055395 -0.26953265 1.7406274
-0.2775135 -0.14124005 1.9195095 -1.0867833 1.336221 1.3184612 1.971491 -0.44642714
6.1500163 -3.5290797 -4.502653 0.7715654 0.20062906 -1.6451695 0.07037668 1.09514
-1.2060981 3.0293128 -0.78903246 -2.2854867 -0.42703432 -0.5333657 0.8797583 1.3297766
1.1232616 -0.171387 -0.19284324 -1.9684713 -0.7648423 -0.2798784 -1.144786 0.7658405
-1.3671546 -0.21414196 -0.13122433 -0.039878614 2.8421412 -0.88868296 -0.37611398 0.4042286
-0.039349843 0.95225024 2.2875025 0.048583917 1.1076578 -5.389136 2.6444402 0.4573596
-1.8131456 0.0017746608 -1.7635052 -0.5315191 -0.94925904 -2.9979355 0.6528681 0.63939923
-0.5022876 2.1803634 0.97578907 -0.7634378 -0.32426235 -0.7679547 1.2679393 -5.978772
0.7395144 -0.05057762 0.38481787 -0.7551864 0.17759663 0.87888134 -1.0906903 2.1645758

body.1.body.0.bias f4 [144]
00000000: cd0b 94bf ed6d 4dbf bcb7 48be 901a 5ebf
00000010: 4be2 adbe aef0 a83e 9214 a0bf 10a4 703e
00000020: 520c 86bf 750b 0a3f 4e92 0fbf 8e93 183f
00000030: c60e 3a3f 7b3d d3bf 8917 b1be df30 33c0
00000040: 521a 91bf bf2f c2bf 7206 c23d de1a 7dbe
00000050: ea5e 41bf 5530 1cc0 3d7e 11bf 5887 d3be
00000060: 5370 4ec0 30da 8dbf 48d9 eabf 7254 b6bf
00000070: db50 b9be 0ecc 25bf 86c6 4c3e 9b27 9d3f
00000080: 223a 0cc0 acd2 bbbe 4982 08c0 6077 1ac0
00000090: d41f a2be 7c92 2ac0 7a0f a1bf 7cf4 98bf
000000a0: dc9c df3e d8be 2fbf 9f4e 28bf 1eeb 39bf
000000b0: e980 06bf 325b 2bc0 a4b6 0cbf 31e0 ecbf
000000c0: 2861 86bf a6f5 d5bf 813c 38be fc19 603f
000000d0: dfc2 f6bf 1e7a 2bc0 477e 1bbf a57b b9bf
000000e0: b0f1 0ebf 2afe b7be f377 e1bf ec06 9c3e
000000f0: af8c 45bf 4bc7 223f 466c 0bc0 b269 62bf
00000100: 668b 91bf cec9 873f 755c 0cbe 3908 27be
00000110: 3a44 d5bf 1a05 61be 84d1 50c0 1052 35c0
00000120: a65d 943e 4695 55bf 4690 56bf 5a6b a2bf
00000130: e7bc 663d d543 d0bf 6156 80bf de9f 8bbf
00000140: aa12 753d e1c3 9c3e 8448 18bf eb8a 3bc0
00000150: e020 36bf ce56 52bf 16ca 82bf cb2e 8cc0
00000160: 895f c7bf 99b3 34bf d19a 1bc0 f598 79bf
00000170: 7327 92bf 4c97 153f 6393 82bf 7d50 9abf
00000180: 21f9 b0be 82ba 54be aa15 b3c0 b81e 70be
00000190: 9768 88be feb2 2ec0 7aae 15be 5fbf b8bf
000001a0: 6e93 11c0 c8cc 093f 2369 fdbf 4ee6 25bf
000001b0: ae17 193f afb3 6abe b232 8c3c dd0a a7bf
000001c0: 5e49 243f 1223 42bf 1475 16bf c9d6 93bd
000001d0: c8a1 bebf d628 3d3f b493 7dbf 31a3 c5be
000001e0: ad14 9cbf 2f9e 55bf c0c9 23bf db26 1cbc
000001f0: a142 17c0 7e7e cbbf b0ac 75bf db44 b5bf
00000200: 1f1a babf 11af bebf 2f3d 2d3f 3159 533f
00000210: 069b 67bf 309e 163d ebd8 c23d 99d4 603f
00000220: 2049 8d3e 3b17 3f3c f81c b9c0 8fb0 5cbe
00000230: 134d 2bc0 0628 fe3d 521c bc3e 5045 35c0
-1.1566101 -0.8024586 -0.19601339 -0.8675928 -0.3396171 0.32996124 -1.2506278 0.23500085
-1.047251 0.5392373 -0.5608262 0.5960015 0.7267879 -1.6503137 -0.34588268 -2.7998579
-1.1336157 -1.5170821 0.094738856 -0.2471728 -0.7553545 -2.44045 -0.5683325 -0.41314197
-3.2256057 -1.108221 -1.8347559 -1.4244521 -0.361945 -0.6476449 0.19997606 1.2277712
-2.1910481 -0.36684167 -2.132952 -2.413536 -0.31664908 -2.6651907 -1.2582848 -1.1949611
0.43674362 -0.6865058 -0.65744966 -0.72624385 -0.5254045 -2.6774411 -0.5496619 -1.8505918
-1.04984 -1.6715591 -0.1799183 0.8753965 -1.927822 -2.6793284 -0.6073956 -1.4490858
-0.55837536 -0.359361 -1.7614731 0.3047403 -0.7716779 0.63585347 -2.1784835 -0.8844253
-1.1370666 1.0608461 -0.13707145 -0.1631173 -1.6661446 -0.21974602 -3.2627878 -2.8331337
0.28977698 -0.834309 -0.83813894 -1.2689011 0.056332495 -1.6270701 -1.0026361 -1.0908163
0.059832253 0.30618194 -0.5948565 -2.9303539 -0.71143913 -0.82163703 -1.0217922 -4.380712
-1.557603 -0.70586544 -2.4313242 -0.9749902 -1.1418289 0.58433986 -1.0201229 -1.2055813
-0.3456507 -0.20774272 -5.5963945 -0.23449218 -0.26642296 -2.7296748 -0.14617339 -1.4433402
-2.2746234 0.53828096 -1.979771 -0.6480454 0.5980176 -0.22920106 0.017114017 -1.305019
0.6417445 -0.75834763 -0.587724 -0.072187014 -1.4893122 0.73890436 -0.990535 -0.38601068
-1.219381 -0.83444494 -0.6397972 -0.009530748 -2.3634417 -1.5897977 -0.95966625 -1.4161638
-1.4539222 -1.4897176 0.67671484 0.8255797 -0.9047092 0.036771953 0.0951403 0.878244
0.27594852 0.011663253 -5.784786 -0.21551727 -2.6765792 0.124099776 0.36740357 -2.8323555

body.1.body.0.weight_g f4 [144, 1, 1, 1]
00000000: cca5 1540 2047 6740 d45b 3a40 94c3 1340
00000010: c401 3f40 4fe9 6840 59e9 6740 eb4f 0b40
00000020: 939e 0740 0ee4 2f40 1f98 0140 64b2 7340
00000030: 3639 3c40 9a53 0340 f890 1440 017b 1a40
00000040: 0302 3540 0a54 3740 aeab 2b40 4129 5040
00000050: e94d 1740 7c8a 1e40 8597 1c40 0afe 0840
00000060: bdfb 0540 5e5c 0e40 7f02 f23f 2eff 1240
00000070: 32d2 3f40 0e50 2740 5288 5040 f5ec 0940
00000080: eae3 0740 60dc 0f40 6586 1b40 e852 0e40
00000090: 3b84 3a40 5245 0e40 873d f23f e493 2040
000000a0: 86f8 8340 3c4e 1740 bb79 e93f 2dbd 3e40
000000b0: b071 4f40 e35c 0f40 cb92 1d40 884b 5640
000000c0: 835c 2940 02f4 e43f 35ad e63f 8ec4 7e40
000000d0: 1987 3240 accd 1b40 5358 1340 bf72 1940
000000e0: 2b3e 1440 6d66 2240 db8b 0d40 6518 0640
000000f0: e3fa 0d40 7d86 eb3f fe59 2a40 0059 0a40
00000100: 4044 1d40 a489 5740 8f64 d73f c05b 3740
00000110: f327 2940 d7d9 1e40 db74 2440 da5f 6840
00000120: eeae 3a40 1174 3b40 dc98 2340 584b c63f
00000130: 72f9 4940 110a 0740 5dfc 1440 2385 f23f
00000140: 7acc 6940 2792 ec3f 9c29 1540 938e 3f40
00000150: 3246 4840 9d40 2e40 4873 0940 d71a 1540
00000160: 7d01 2a40 fa90 1140 15b6 1540 6f9a 1840
00000170: 7ec6 0d40 7f58 6440 7c53 fa3f d51b 1540
00000180: e168 2340 016c 3a40 dcc4 1640 a44b 1e40
00000190: 41ea 0840 5219 0340 5140 5c40 330b 2240
000001a0: 1126 0740 b094 2e40 989f 1d40 2788 3840
000001b0: 82d8 2940 6045 e73f 1815 0640 1031 e93f
000001c0: 596b 2340 25ee 1c40 cc89 3a40 6f8b 5e40
000001d0: 4b5f f43f 594a 1d40 37cb 2340 135d 0340
000001e0: 2c4c 4740 7676 3a40 1515 5240 ed95 0040
000001f0: c4d7 1140 1099 4040 7100 4440 8a11 3740
00000200: ca06 1040 c6d8 1b40 698e 2840 f7fc 923f
00000210: 0980 2540 1170 4740 4a9f 5040 d354 5540
00000220: a7db 3240 dce4 c33f 118c 1240 cdb2 e63f
00000230: b047 2740 a22f bc3f e310 0d40 adc8 1040
2.3382444 3.6137161 2.9118547 2.3088121 2.9844828 3.63924 3.6236174 2.1767528
2.1190536 2.7482944 2.0249097 3.807763 2.9409919 2.0519776 2.3213482 2.4137576
2.8282478 2.8645043 2.6823535 3.252518 2.3641303 2.4772024 2.446748 2.1405053
2.09349 2.2243876 1.8907012 2.296825 2.9972043 2.6142612 3.2583203 2.1550877
2.1232858 2.2478256 2.4300778 2.2238102 2.9143207 2.222981 1.8925027 2.5090265
4.1240873 2.36415 1.8240274 2.9802964 3.241314 2.2400444 2.4620845 3.34836
2.6462715 1.7886965 1.8021609 3.9807467 2.7894957 2.4344282 2.302266 2.3976285
2.3162944 2.5375016 2.211661 2.095239 2.218438 1.8400418 2.6617427 2.1616821
2.4572906 3.367776 1.6827563 2.864975 2.6430633 2.482046 2.5696323 3.6308503
2.9169269 2.9289591 2.5562048 1.5491743 3.15585 2.1099894 2.327903 1.894688
3.6531053 1.8482102 2.3306646 2.993077 3.1292844 2.7226937 2.1476612 2.3297632
2.6563408 2.2744737 2.3392384 2.3844259 2.21524 3.5679014 1.9556727 2.3298237
2.5532763 2.912842 2.3557653 2.4733667 2.1392977 2.0484204 3.4414256 2.5319335
2.1116984 2.7278252 2.4628658 2.88331 2.6538396 1.8068047 2.0950375 1.8218098
2.553427 2.4520352 2.9146605 3.4772604 1.9091581 2.4576628 2.5592782 2.0525558
3.1140242 2.9134803 3.2825367 2.0091507 2.2787943 3.0093422 3.062527 2.8604455
2.2504144 2.4351058 2.633692 1.1483449 2.5859396 3.116215 3.2597222 3.3333023
2.7946565 1.5304217 2.289799 1.8023316 2.6137505 1.4702036 2.2041557 2.2622483

body.1.body.0.weight_v f4 [144, 24, 1, 1]
00000000: 8a0f 44c0 4090 9abf 1dce babf 7e14 4ac0
00000010: cef7 cdbf dc25 2ac0 5d0f 1c3e d0dd 16c0
00000020: 1b52 4e3f bdbf 13c0 665b 70bf d20b 6c3f
00000030: 717d 47c0 e8f5 ac3f 61b1 1ac0 4446 013f
00000040: c072 a0bf 880d e8be e0ca e9bf f540 43bf
00000050: 3297 b2bf c832 bc3e 456a 1a3f 9c76 33bf
00000060: 58f7 0940 9cce 6cc0 e39e 9bbf 6cd6 2e3e
00000070: d1ad de3f 93fa 1dbf c9d6 093e e974 10bf
00000080: c58a dcbe f840 2f3f 96e8 b5be 022b 5440
00000090: c2e7 9bc0 06b9 babf 1460 2cbf d042 c2bf
000000a0: cb50 ebbe 98af bd3f be13 0840 f2b5 d23e
000000b0: 4987 2a40 e903 893f 12dc d9bf 25a3 5e3f
000000c0: ea4c a3c0 3682 5ac0 cdd7 f9bf e176 2a3f
000000d0: 41dc f13e fa7d 15c0 0228 55c0 adcc 0e3f
000000e0: 0196 8b3f fa8b 66c0 0e84 283f ff85 ed3e
000000f0: 46e1 e73f 305d fa3f 4b38 d9bf c880 98be
00000100: 2e84 853f 3f04 353e 9f1f 44c0 74af 03bf
00000110: 469a 643f fc75 ad3f 6a45 503e 15a5 96bc
00000120: 446b 12c0 10c4 1bc0 11df 8a3f 8550 16bf
00000130: 0613 1bc0 76b1 cebf 8269 cd3e 6123 dbbe
00000140: a0f0 1d3e d153 49c0 b6c3 ac3f 323c 6a3f
00000150: 4c08 60c0 a797 febe f59e 3abf 0668 9a3f
00000160: 0c83 d6be f886 22c0 e3c1 4fbf a777 e63e
00000170: dfc3 2340 7e0c 0140 30d5 8040 65d5 0140
00000180: da07 5f40 58be 2240 5a13 453f 6be6 a83f
00000190: f33d 2540 e9a0 0d40 d6eb 693f 8e18 a43f
000001a0: 7f8e 1a3f 7f7c 4c3f 7688 4ec0 8ea0 923f
000001b0: 83e3 6940 5f39 f13f 46c5 d63f 5120 65bd
000001c0: 20d4 a73e 034b 3140 2638 d33e 5623 993e
000001d0: 00c9 f9be 0fab a4bf 60c1 6ac0 4b49 d33c
000001e0: c2e8 5d3f 6ddf fdbe dc23 b83f e93d fe3e
000001f0: 2b19 8a3e f143 53bd 946a 433f c1ce 6c3f
00000200: 6f3b 9dbf 65e5 b03f 55bd be3d ec22 2040
00000210: 3d7d 8fbf e758 bb3f a4b9 9bbf dcef 21bf
00000220: 601e 8d3f cad0 263d 1b41 b43f bae4 21bf
00000230: bb85 59c0 cf91 8e40 bbfc 7c3f a402 35be
00000240: 6767 263f 1193 87bf 8bb2 a93f 7446 fabf
00000250: 84ff d63f 3678 8e3f 7f64 8a3f 54f7 a040
00000260: 8329 0dbf e25c 43c0 7d3a e23e 53d1 893e
00000270: 942c 26c0 cd73 51bf 2c12 3c40 9243 2dc0
00000280: f214 d7bc 0399 f23f feb3 c8bf 59c3 2cbd
00000290: 6d3f b8bf 5016 0cc0 6dc4 67bf 75c0 883f
000002a0: c20d e03f 14c0 c5be cb93 3840 bc3a 3a3e
000002b0: 21d7 0740 3f49 fb3e 6ac3 de3e f19e ed3f
000002c0: 4838 52c0 4c1e 8ebe 19a4 9f3e a93d 893f
000002d0: 5d36 abbf 7842 333f edbb f9bf 6b1a 483e
000002e0: b33c acbf 510b 95bf 0b86 3a3d 43ea 66be
000002f0: 63eb b6bf b938 92bf 7eec 2240 5fe2 24c0
00000300: 9370 7b40 fe5c ac3f 8dc1 2dbe bba2 aa3f
00000310: 1ab5 d63f c89a 0dc0 6de9 bf3e 825a ca3f
00000320: 4ab7 0fc0 5105 d8be 07cc 1040 8519 123f
00000330: baf8 c5bf caae 863f d6ef 06c0 3578 87bf
00000340: 56b1 3cbf a7a3 5fbf 9493 c83e 55ef afbf
00000350: 3730 91bf 1a2d ddbe 8273 3740 1bf5 e9be
00000360: f017 f5bf d710 3040 b92b 5fbe 0fbb 703f
00000370: 89c4 4840 387e ecbe 34cd 2d40 13ad e9bf
00000380: c978 f33e 6967 94bf e0a0 a53f 1dcc 3740
00000390: ef16 0e40 984b b23f 3635 523f c514 ed3f
000003a0: 0f90 efbe be04 1840 54b0 ec3f 05fc 663f
000003b0: 5175 0840 efcf 683e 7973 de3f 6c8d f93f
000003c0: 5619 453e 1e77 2540 a4c6 2340 15c5 00c0
000003d0: 8102 9e3f 7401 3240 52a2 a53f 4a94 54bf
000003e0: d670 a9bf 9b63 0cc0 c7b2 8b3f 11c2 a1c0
000003f0: db5f 8bbf ea82 473f 6d00 3fc0 7667 aa3f
-3.0634484 -1.2075272 -1.4594151 -3.1575007 -1.6091249 -2.6585608 0.15240236 -2.3572884
0.80594033 -2.3085778 -0.9388946 0.92205536 -3.1170313 1.3512545 -2.4170763 0.5049784
-1.2535019 -0.45322824 -1.8265038 -0.7627099 -1.3952391 0.36757493 0.60318404 -0.7010286
2.1557217 -3.7001104 -1.2157863 0.17073983 1.7396795 -0.6171047 0.1346084 -0.5642839
-0.43074623 0.6845851 -0.3552901 3.315125 -4.8720407 -1.4587715 -0.67334104 -1.517664
-0.45960078 1.4819212 2.126205 0.41154438 2.6645072 1.0704318 -1.7020285 0.8696769
-5.103139 -3.4141974 -1.9518982 0.66587645 0.47238353 -2.335814 -3.330567 0.5578106
1.0905153 -3.6022935 0.658265 0.46391293 1.8115623 1.9559689 -1.6970304 -0.29785752
1.0430963 0.17677401 -3.06443 -0.51439595 0.892979 1.3551631 0.2033898 -0.018389264
-2.287797 -2.4338417 1.0849324 -0.58716613 -2.423036 -1.6147907 0.4011956 -0.4280043
0.15423822 -3.1457407 1.3497226 0.914981 -3.5005064 -0.49725077 -0.728988 1.2062995
-0.41896856 -2.5394878 -0.8115522 0.45013162 2.55883 2.0163875 4.026024 2.0286496
3.4848542 2.5428677 0.76982653 1.3195318 2.581906 2.2129462 0.9137548 1.2819993
0.6037368 0.79877466 -3.227079 1.1455247 3.6545112 1.8845633 1.6778953 -0.055939022
0.32779026 2.7702034 0.41253775 0.29909772 -0.48786163 -1.2864703 -3.6680527 0.025791785
0.86683285 -0.49584523 1.4385943 0.4965661 0.26972327 -0.051578466 0.763345 0.9250298
-1.2283763 1.3820006 0.09313456 2.5021315 -1.1210095 1.4636506 -1.2166028 -0.6325662
1.1024895 0.04072646 1.4082369 -0.63239634 -3.3987873 4.455299 0.98823136 -0.17676789
0.6500153 -1.0591756 1.3257612 -1.955275 1.6796727 1.1130435 1.0811919 5.0301914
-0.55141467 -3.052544 0.44185248 0.26917514 -2.5964708 -0.8181732 2.9386091 -2.7072492
-0.026255105 1.8952945 -1.5679929 -0.042178486 -1.4394356 -2.1888618 -0.90534097 1.0683733
1.7504199 -0.38623106 2.8840206 0.18186468 2.1225054 0.4907932 0.43508464 1.856413
-3.2846851 -0.2775749 0.31179884 1.0721942 -1.3375965 0.700233 -1.9510475 0.19541328
-1.3456024 -1.1644078 0.04553799 -0.22550301 -1.4290584 -1.142356 2.5456843 -2.5763166
3.928746 1.3465879 -0.16968365 1.3330911 1.6774018 -2.212572 0.37482777 1.5808871
-2.245562 -0.42191556 2.2624528 0.5707019 -1.546653 1.0522091 -2.1083884 -1.0583559
-0.73708093 -0.8735909 0.39175093 -1.3744913 -1.1342839 -0.43198472 2.866425 -0.45694813
-1.914793 2.7510278 -0.21794023 0.9403543 3.1369956 -0.46190047 2.7156496 -1.8255943
0.4755309 -1.1594058 1.293972 2.871833 2.2201498 1.3929319 0.82112443 1.8521963
-0.46789595 2.3752894 1.8491311 0.902283 2.1321604 0.2273557 1.737899 1.9496284
0.19247946 2.5853953 2.558999 -2.012029 1.2344514 2.7813387 1.2940161 -0.8303877
-1.323756 -2.1935794 1.0913934 -5.0549397 -1.0888628 0.77934134 -2.984401 1.3312824

body.1.body.2.bias f4 [20]
00000000: 5e24 4a3e f855 61bd eae0 24be 24d5 fcbd
00000010: 409c 01be b744 0f3d 6d91 ffbe cfcc a5bd
00000020: ae7b 4abe 0273 63be 4c97 9fbe 2445 10bf
00000030: 752b f0be 7736 91be 89cd b9be ce84 c5be
00000040: 1c20 b13c f6e9 083e b7a3 35be 2649 103f
0.19740435 -0.055013627 -0.16101423 -0.12345341 -0.12657261 0.03497764 -0.4991564 -0.08095705
-0.19773743 -0.22211841 -0.31170118 -0.563555 -0.46908155 -0.28361866 -0.36289623 -0.38577884
0.021621756 0.13370499 -0.17738234 0.56361616

body.1.body.2.weight_g f4 [20, 1, 1, 1]
00000000: fff0 c43f a337 933f fd7e 843f 69a6 b23f
00000010: cc6d 903f c496 793f da3a d03f bb20 a03f
00000020: cebf 813f 0278 c13f 47a8 b63f 7a25 cd3f
00000030: 4d76 b43f a803 bb3f f8d8 9c3f 83e4 cb3f
00000040: 06e9 903f 4705 ac3f ecb7 df3f cef4 bc3f
1.5386046 1.1501354 1.0351254 1.3957034 1.1283507 0.97495675 1.626796 1.2509989
1.0136659 1.5114748 1.4270104 1.6027062 1.4098603 1.4610491 1.2253714 1.5929111
1.1321113 1.343911 1.7478004 1.4762208
